<?xml version="1.0" ?>
<net name="rpn" version="10">
	<layers>
		<layer id="0" name="input.1" type="Parameter" version="opset1">
			<data element_type="f16" shape="1,64,496,432"/>
			<output>
				<port id="0" precision="FP16">
					<dim>1</dim>
					<dim>64</dim>
					<dim>496</dim>
					<dim>432</dim>
				</port>
			</output>
		</layer>
		<layer id="1" name="536540_const" type="Const" version="opset1">
			<data element_type="f16" offset="0" shape="" size="2"/>
			<output>
				<port id="1" precision="FP16"/>
			</output>
		</layer>
		<layer id="2" name="537541_const" type="Const" version="opset1">
			<data element_type="f16" offset="2" shape="" size="2"/>
			<output>
				<port id="1" precision="FP16"/>
			</output>
		</layer>
		<layer id="3" name="538542_const" type="Const" version="opset1">
			<data element_type="f16" offset="0" shape="" size="2"/>
			<output>
				<port id="1" precision="FP16"/>
			</output>
		</layer>
		<layer id="4" name="539543_const" type="Const" version="opset1">
			<data element_type="f16" offset="2" shape="" size="2"/>
			<output>
				<port id="1" precision="FP16"/>
			</output>
		</layer>
		<layer id="5" name="Conv_1/fq_input_0" type="FakeQuantize" version="opset1">
			<data levels="256"/>
			<input>
				<port id="0">
					<dim>1</dim>
					<dim>64</dim>
					<dim>496</dim>
					<dim>432</dim>
				</port>
				<port id="1"/>
				<port id="2"/>
				<port id="3"/>
				<port id="4"/>
			</input>
			<output>
				<port id="5" precision="FP16">
					<dim>1</dim>
					<dim>64</dim>
					<dim>496</dim>
					<dim>432</dim>
				</port>
			</output>
		</layer>
		<layer id="6" name="Conv_1/fq_weights_1/Convert_to_float/Cast_02013_const" type="Const" version="opset1">
			<data element_type="u8" offset="4" shape="64,64,3,3" size="36864"/>
			<output>
				<port id="1" precision="U8">
					<dim>64</dim>
					<dim>64</dim>
					<dim>3</dim>
					<dim>3</dim>
				</port>
			</output>
		</layer>
		<layer id="7" name="Conv_1/fq_weights_1/Convert_to_float" type="Convert" version="opset1">
			<data destination_type="f16"/>
			<input>
				<port id="0">
					<dim>64</dim>
					<dim>64</dim>
					<dim>3</dim>
					<dim>3</dim>
				</port>
			</input>
			<output>
				<port id="1" precision="FP16">
					<dim>64</dim>
					<dim>64</dim>
					<dim>3</dim>
					<dim>3</dim>
				</port>
			</output>
		</layer>
		<layer id="8" name="Conv_1/fq_weights_1/Copy/out_low1668_const" type="Const" version="opset1">
			<data element_type="f16" offset="36868" shape="1" size="2"/>
			<output>
				<port id="1" precision="FP16">
					<dim>1</dim>
				</port>
			</output>
		</layer>
		<layer id="9" name="Conv_1/fq_weights_1/Copy/out_high1669_const" type="Const" version="opset1">
			<data element_type="f16" offset="36870" shape="1" size="2"/>
			<output>
				<port id="1" precision="FP16">
					<dim>1</dim>
				</port>
			</output>
		</layer>
		<layer id="10" name="548552_const" type="Const" version="opset1">
			<data element_type="f16" offset="36872" shape="64,1,1,1" size="128"/>
			<output>
				<port id="1" precision="FP16">
					<dim>64</dim>
					<dim>1</dim>
					<dim>1</dim>
					<dim>1</dim>
				</port>
			</output>
		</layer>
		<layer id="11" name="549553_const" type="Const" version="opset1">
			<data element_type="f16" offset="37000" shape="64,1,1,1" size="128"/>
			<output>
				<port id="1" precision="FP16">
					<dim>64</dim>
					<dim>1</dim>
					<dim>1</dim>
					<dim>1</dim>
				</port>
			</output>
		</layer>
		<layer id="12" name="Conv_1/fq_weights_1" type="FakeQuantize" version="opset1">
			<data levels="255"/>
			<input>
				<port id="0">
					<dim>64</dim>
					<dim>64</dim>
					<dim>3</dim>
					<dim>3</dim>
				</port>
				<port id="1">
					<dim>1</dim>
				</port>
				<port id="2">
					<dim>1</dim>
				</port>
				<port id="3">
					<dim>64</dim>
					<dim>1</dim>
					<dim>1</dim>
					<dim>1</dim>
				</port>
				<port id="4">
					<dim>64</dim>
					<dim>1</dim>
					<dim>1</dim>
					<dim>1</dim>
				</port>
			</input>
			<output>
				<port id="5" precision="FP16">
					<dim>64</dim>
					<dim>64</dim>
					<dim>3</dim>
					<dim>3</dim>
				</port>
			</output>
		</layer>
		<layer id="13" name="Conv_1" type="Convolution" version="opset1">
			<data dilations="1,1" output_padding="0,0" pads_begin="1,1" pads_end="1,1" strides="2,2"/>
			<input>
				<port id="0">
					<dim>1</dim>
					<dim>64</dim>
					<dim>496</dim>
					<dim>432</dim>
				</port>
				<port id="1">
					<dim>64</dim>
					<dim>64</dim>
					<dim>3</dim>
					<dim>3</dim>
				</port>
			</input>
			<output>
				<port id="2" precision="FP16">
					<dim>1</dim>
					<dim>64</dim>
					<dim>248</dim>
					<dim>216</dim>
				</port>
			</output>
		</layer>
		<layer id="14" name="data_add_34283603/EltwiseUnsqueeze3659_const122_const" type="Const" version="opset1">
			<data element_type="f16" offset="37128" shape="1,64,1,1" size="128"/>
			<output>
				<port id="1" precision="FP16">
					<dim>1</dim>
					<dim>64</dim>
					<dim>1</dim>
					<dim>1</dim>
				</port>
			</output>
		</layer>
		<layer id="15" name="BatchNormalization_2/variance/Fused_Add_" type="Add" version="opset1">
			<input>
				<port id="0">
					<dim>1</dim>
					<dim>64</dim>
					<dim>248</dim>
					<dim>216</dim>
				</port>
				<port id="1">
					<dim>1</dim>
					<dim>64</dim>
					<dim>1</dim>
					<dim>1</dim>
				</port>
			</input>
			<output>
				<port id="2" precision="FP16">
					<dim>1</dim>
					<dim>64</dim>
					<dim>248</dim>
					<dim>216</dim>
				</port>
			</output>
		</layer>
		<layer id="16" name="Relu_3" type="ReLU" version="opset1">
			<input>
				<port id="0">
					<dim>1</dim>
					<dim>64</dim>
					<dim>248</dim>
					<dim>216</dim>
				</port>
			</input>
			<output>
				<port id="1" precision="FP16">
					<dim>1</dim>
					<dim>64</dim>
					<dim>248</dim>
					<dim>216</dim>
				</port>
			</output>
		</layer>
		<layer id="17" name="516520_const" type="Const" version="opset1">
			<data element_type="f16" offset="36868" shape="" size="2"/>
			<output>
				<port id="1" precision="FP16"/>
			</output>
		</layer>
		<layer id="18" name="517521_const" type="Const" version="opset1">
			<data element_type="f16" offset="37256" shape="" size="2"/>
			<output>
				<port id="1" precision="FP16"/>
			</output>
		</layer>
		<layer id="19" name="518522_const" type="Const" version="opset1">
			<data element_type="f16" offset="36868" shape="" size="2"/>
			<output>
				<port id="1" precision="FP16"/>
			</output>
		</layer>
		<layer id="20" name="519523_const" type="Const" version="opset1">
			<data element_type="f16" offset="37256" shape="" size="2"/>
			<output>
				<port id="1" precision="FP16"/>
			</output>
		</layer>
		<layer id="21" name="Conv_4/fq_input_0" type="FakeQuantize" version="opset1">
			<data levels="256"/>
			<input>
				<port id="0">
					<dim>1</dim>
					<dim>64</dim>
					<dim>248</dim>
					<dim>216</dim>
				</port>
				<port id="1"/>
				<port id="2"/>
				<port id="3"/>
				<port id="4"/>
			</input>
			<output>
				<port id="5" precision="FP16">
					<dim>1</dim>
					<dim>64</dim>
					<dim>248</dim>
					<dim>216</dim>
				</port>
			</output>
		</layer>
		<layer id="22" name="Conv_4/fq_weights_1/Convert_to_float/Cast_02005_const" type="Const" version="opset1">
			<data element_type="u8" offset="37258" shape="64,64,3,3" size="36864"/>
			<output>
				<port id="1" precision="U8">
					<dim>64</dim>
					<dim>64</dim>
					<dim>3</dim>
					<dim>3</dim>
				</port>
			</output>
		</layer>
		<layer id="23" name="Conv_4/fq_weights_1/Convert_to_float" type="Convert" version="opset1">
			<data destination_type="f16"/>
			<input>
				<port id="0">
					<dim>64</dim>
					<dim>64</dim>
					<dim>3</dim>
					<dim>3</dim>
				</port>
			</input>
			<output>
				<port id="1" precision="FP16">
					<dim>64</dim>
					<dim>64</dim>
					<dim>3</dim>
					<dim>3</dim>
				</port>
			</output>
		</layer>
		<layer id="24" name="Conv_4/fq_weights_1/Copy/out_low1724_const" type="Const" version="opset1">
			<data element_type="f16" offset="36868" shape="1" size="2"/>
			<output>
				<port id="1" precision="FP16">
					<dim>1</dim>
				</port>
			</output>
		</layer>
		<layer id="25" name="Conv_4/fq_weights_1/Copy/out_high1725_const" type="Const" version="opset1">
			<data element_type="f16" offset="36870" shape="1" size="2"/>
			<output>
				<port id="1" precision="FP16">
					<dim>1</dim>
				</port>
			</output>
		</layer>
		<layer id="26" name="528532_const" type="Const" version="opset1">
			<data element_type="f16" offset="74122" shape="64,1,1,1" size="128"/>
			<output>
				<port id="1" precision="FP16">
					<dim>64</dim>
					<dim>1</dim>
					<dim>1</dim>
					<dim>1</dim>
				</port>
			</output>
		</layer>
		<layer id="27" name="529533_const" type="Const" version="opset1">
			<data element_type="f16" offset="74250" shape="64,1,1,1" size="128"/>
			<output>
				<port id="1" precision="FP16">
					<dim>64</dim>
					<dim>1</dim>
					<dim>1</dim>
					<dim>1</dim>
				</port>
			</output>
		</layer>
		<layer id="28" name="Conv_4/fq_weights_1" type="FakeQuantize" version="opset1">
			<data levels="255"/>
			<input>
				<port id="0">
					<dim>64</dim>
					<dim>64</dim>
					<dim>3</dim>
					<dim>3</dim>
				</port>
				<port id="1">
					<dim>1</dim>
				</port>
				<port id="2">
					<dim>1</dim>
				</port>
				<port id="3">
					<dim>64</dim>
					<dim>1</dim>
					<dim>1</dim>
					<dim>1</dim>
				</port>
				<port id="4">
					<dim>64</dim>
					<dim>1</dim>
					<dim>1</dim>
					<dim>1</dim>
				</port>
			</input>
			<output>
				<port id="5" precision="FP16">
					<dim>64</dim>
					<dim>64</dim>
					<dim>3</dim>
					<dim>3</dim>
				</port>
			</output>
		</layer>
		<layer id="29" name="Conv_4" type="Convolution" version="opset1">
			<data dilations="1,1" output_padding="0,0" pads_begin="1,1" pads_end="1,1" strides="1,1"/>
			<input>
				<port id="0">
					<dim>1</dim>
					<dim>64</dim>
					<dim>248</dim>
					<dim>216</dim>
				</port>
				<port id="1">
					<dim>64</dim>
					<dim>64</dim>
					<dim>3</dim>
					<dim>3</dim>
				</port>
			</input>
			<output>
				<port id="2" precision="FP16">
					<dim>1</dim>
					<dim>64</dim>
					<dim>248</dim>
					<dim>216</dim>
				</port>
			</output>
		</layer>
		<layer id="30" name="data_add_343134363605/EltwiseUnsqueeze3667_const127_const" type="Const" version="opset1">
			<data element_type="f16" offset="74378" shape="1,64,1,1" size="128"/>
			<output>
				<port id="1" precision="FP16">
					<dim>1</dim>
					<dim>64</dim>
					<dim>1</dim>
					<dim>1</dim>
				</port>
			</output>
		</layer>
		<layer id="31" name="BatchNormalization_5/variance/Fused_Add_" type="Add" version="opset1">
			<input>
				<port id="0">
					<dim>1</dim>
					<dim>64</dim>
					<dim>248</dim>
					<dim>216</dim>
				</port>
				<port id="1">
					<dim>1</dim>
					<dim>64</dim>
					<dim>1</dim>
					<dim>1</dim>
				</port>
			</input>
			<output>
				<port id="2" precision="FP16">
					<dim>1</dim>
					<dim>64</dim>
					<dim>248</dim>
					<dim>216</dim>
				</port>
			</output>
		</layer>
		<layer id="32" name="Relu_6" type="ReLU" version="opset1">
			<input>
				<port id="0">
					<dim>1</dim>
					<dim>64</dim>
					<dim>248</dim>
					<dim>216</dim>
				</port>
			</input>
			<output>
				<port id="1" precision="FP16">
					<dim>1</dim>
					<dim>64</dim>
					<dim>248</dim>
					<dim>216</dim>
				</port>
			</output>
		</layer>
		<layer id="33" name="716720_const" type="Const" version="opset1">
			<data element_type="f16" offset="36868" shape="" size="2"/>
			<output>
				<port id="1" precision="FP16"/>
			</output>
		</layer>
		<layer id="34" name="717721_const" type="Const" version="opset1">
			<data element_type="f16" offset="74506" shape="" size="2"/>
			<output>
				<port id="1" precision="FP16"/>
			</output>
		</layer>
		<layer id="35" name="718722_const" type="Const" version="opset1">
			<data element_type="f16" offset="36868" shape="" size="2"/>
			<output>
				<port id="1" precision="FP16"/>
			</output>
		</layer>
		<layer id="36" name="719723_const" type="Const" version="opset1">
			<data element_type="f16" offset="74506" shape="" size="2"/>
			<output>
				<port id="1" precision="FP16"/>
			</output>
		</layer>
		<layer id="37" name="Conv_7/fq_input_0" type="FakeQuantize" version="opset1">
			<data levels="256"/>
			<input>
				<port id="0">
					<dim>1</dim>
					<dim>64</dim>
					<dim>248</dim>
					<dim>216</dim>
				</port>
				<port id="1"/>
				<port id="2"/>
				<port id="3"/>
				<port id="4"/>
			</input>
			<output>
				<port id="5" precision="FP16">
					<dim>1</dim>
					<dim>64</dim>
					<dim>248</dim>
					<dim>216</dim>
				</port>
			</output>
		</layer>
		<layer id="38" name="Conv_7/fq_weights_1/Convert_to_float/Cast_02019_const" type="Const" version="opset1">
			<data element_type="u8" offset="74508" shape="64,64,3,3" size="36864"/>
			<output>
				<port id="1" precision="U8">
					<dim>64</dim>
					<dim>64</dim>
					<dim>3</dim>
					<dim>3</dim>
				</port>
			</output>
		</layer>
		<layer id="39" name="Conv_7/fq_weights_1/Convert_to_float" type="Convert" version="opset1">
			<data destination_type="f16"/>
			<input>
				<port id="0">
					<dim>64</dim>
					<dim>64</dim>
					<dim>3</dim>
					<dim>3</dim>
				</port>
			</input>
			<output>
				<port id="1" precision="FP16">
					<dim>64</dim>
					<dim>64</dim>
					<dim>3</dim>
					<dim>3</dim>
				</port>
			</output>
		</layer>
		<layer id="40" name="Conv_7/fq_weights_1/Copy/out_low1652_const" type="Const" version="opset1">
			<data element_type="f16" offset="36868" shape="1" size="2"/>
			<output>
				<port id="1" precision="FP16">
					<dim>1</dim>
				</port>
			</output>
		</layer>
		<layer id="41" name="Conv_7/fq_weights_1/Copy/out_high1653_const" type="Const" version="opset1">
			<data element_type="f16" offset="36870" shape="1" size="2"/>
			<output>
				<port id="1" precision="FP16">
					<dim>1</dim>
				</port>
			</output>
		</layer>
		<layer id="42" name="728732_const" type="Const" version="opset1">
			<data element_type="f16" offset="111372" shape="64,1,1,1" size="128"/>
			<output>
				<port id="1" precision="FP16">
					<dim>64</dim>
					<dim>1</dim>
					<dim>1</dim>
					<dim>1</dim>
				</port>
			</output>
		</layer>
		<layer id="43" name="729733_const" type="Const" version="opset1">
			<data element_type="f16" offset="111500" shape="64,1,1,1" size="128"/>
			<output>
				<port id="1" precision="FP16">
					<dim>64</dim>
					<dim>1</dim>
					<dim>1</dim>
					<dim>1</dim>
				</port>
			</output>
		</layer>
		<layer id="44" name="Conv_7/fq_weights_1" type="FakeQuantize" version="opset1">
			<data levels="255"/>
			<input>
				<port id="0">
					<dim>64</dim>
					<dim>64</dim>
					<dim>3</dim>
					<dim>3</dim>
				</port>
				<port id="1">
					<dim>1</dim>
				</port>
				<port id="2">
					<dim>1</dim>
				</port>
				<port id="3">
					<dim>64</dim>
					<dim>1</dim>
					<dim>1</dim>
					<dim>1</dim>
				</port>
				<port id="4">
					<dim>64</dim>
					<dim>1</dim>
					<dim>1</dim>
					<dim>1</dim>
				</port>
			</input>
			<output>
				<port id="5" precision="FP16">
					<dim>64</dim>
					<dim>64</dim>
					<dim>3</dim>
					<dim>3</dim>
				</port>
			</output>
		</layer>
		<layer id="45" name="Conv_7" type="Convolution" version="opset1">
			<data dilations="1,1" output_padding="0,0" pads_begin="1,1" pads_end="1,1" strides="1,1"/>
			<input>
				<port id="0">
					<dim>1</dim>
					<dim>64</dim>
					<dim>248</dim>
					<dim>216</dim>
				</port>
				<port id="1">
					<dim>64</dim>
					<dim>64</dim>
					<dim>3</dim>
					<dim>3</dim>
				</port>
			</input>
			<output>
				<port id="2" precision="FP16">
					<dim>1</dim>
					<dim>64</dim>
					<dim>248</dim>
					<dim>216</dim>
				</port>
			</output>
		</layer>
		<layer id="46" name="data_add_343934443607/EltwiseUnsqueeze3675_const132_const" type="Const" version="opset1">
			<data element_type="f16" offset="111628" shape="1,64,1,1" size="128"/>
			<output>
				<port id="1" precision="FP16">
					<dim>1</dim>
					<dim>64</dim>
					<dim>1</dim>
					<dim>1</dim>
				</port>
			</output>
		</layer>
		<layer id="47" name="BatchNormalization_8/variance/Fused_Add_" type="Add" version="opset1">
			<input>
				<port id="0">
					<dim>1</dim>
					<dim>64</dim>
					<dim>248</dim>
					<dim>216</dim>
				</port>
				<port id="1">
					<dim>1</dim>
					<dim>64</dim>
					<dim>1</dim>
					<dim>1</dim>
				</port>
			</input>
			<output>
				<port id="2" precision="FP16">
					<dim>1</dim>
					<dim>64</dim>
					<dim>248</dim>
					<dim>216</dim>
				</port>
			</output>
		</layer>
		<layer id="48" name="Relu_9" type="ReLU" version="opset1">
			<input>
				<port id="0">
					<dim>1</dim>
					<dim>64</dim>
					<dim>248</dim>
					<dim>216</dim>
				</port>
			</input>
			<output>
				<port id="1" precision="FP16">
					<dim>1</dim>
					<dim>64</dim>
					<dim>248</dim>
					<dim>216</dim>
				</port>
			</output>
		</layer>
		<layer id="49" name="676680_const" type="Const" version="opset1">
			<data element_type="f16" offset="36868" shape="" size="2"/>
			<output>
				<port id="1" precision="FP16"/>
			</output>
		</layer>
		<layer id="50" name="677681_const" type="Const" version="opset1">
			<data element_type="f16" offset="111756" shape="" size="2"/>
			<output>
				<port id="1" precision="FP16"/>
			</output>
		</layer>
		<layer id="51" name="678682_const" type="Const" version="opset1">
			<data element_type="f16" offset="36868" shape="" size="2"/>
			<output>
				<port id="1" precision="FP16"/>
			</output>
		</layer>
		<layer id="52" name="679683_const" type="Const" version="opset1">
			<data element_type="f16" offset="111756" shape="" size="2"/>
			<output>
				<port id="1" precision="FP16"/>
			</output>
		</layer>
		<layer id="53" name="Conv_10/fq_input_0" type="FakeQuantize" version="opset1">
			<data levels="256"/>
			<input>
				<port id="0">
					<dim>1</dim>
					<dim>64</dim>
					<dim>248</dim>
					<dim>216</dim>
				</port>
				<port id="1"/>
				<port id="2"/>
				<port id="3"/>
				<port id="4"/>
			</input>
			<output>
				<port id="5" precision="FP16">
					<dim>1</dim>
					<dim>64</dim>
					<dim>248</dim>
					<dim>216</dim>
				</port>
			</output>
		</layer>
		<layer id="54" name="Conv_10/fq_weights_1/Convert_to_float/Cast_02001_const" type="Const" version="opset1">
			<data element_type="u8" offset="111758" shape="64,64,3,3" size="36864"/>
			<output>
				<port id="1" precision="U8">
					<dim>64</dim>
					<dim>64</dim>
					<dim>3</dim>
					<dim>3</dim>
				</port>
			</output>
		</layer>
		<layer id="55" name="Conv_10/fq_weights_1/Convert_to_float" type="Convert" version="opset1">
			<data destination_type="f16"/>
			<input>
				<port id="0">
					<dim>64</dim>
					<dim>64</dim>
					<dim>3</dim>
					<dim>3</dim>
				</port>
			</input>
			<output>
				<port id="1" precision="FP16">
					<dim>64</dim>
					<dim>64</dim>
					<dim>3</dim>
					<dim>3</dim>
				</port>
			</output>
		</layer>
		<layer id="56" name="Conv_10/fq_weights_1/Copy/out_low1756_const" type="Const" version="opset1">
			<data element_type="f16" offset="36868" shape="1" size="2"/>
			<output>
				<port id="1" precision="FP16">
					<dim>1</dim>
				</port>
			</output>
		</layer>
		<layer id="57" name="Conv_10/fq_weights_1/Copy/out_high1757_const" type="Const" version="opset1">
			<data element_type="f16" offset="36870" shape="1" size="2"/>
			<output>
				<port id="1" precision="FP16">
					<dim>1</dim>
				</port>
			</output>
		</layer>
		<layer id="58" name="688692_const" type="Const" version="opset1">
			<data element_type="f16" offset="148622" shape="64,1,1,1" size="128"/>
			<output>
				<port id="1" precision="FP16">
					<dim>64</dim>
					<dim>1</dim>
					<dim>1</dim>
					<dim>1</dim>
				</port>
			</output>
		</layer>
		<layer id="59" name="689693_const" type="Const" version="opset1">
			<data element_type="f16" offset="148750" shape="64,1,1,1" size="128"/>
			<output>
				<port id="1" precision="FP16">
					<dim>64</dim>
					<dim>1</dim>
					<dim>1</dim>
					<dim>1</dim>
				</port>
			</output>
		</layer>
		<layer id="60" name="Conv_10/fq_weights_1" type="FakeQuantize" version="opset1">
			<data levels="255"/>
			<input>
				<port id="0">
					<dim>64</dim>
					<dim>64</dim>
					<dim>3</dim>
					<dim>3</dim>
				</port>
				<port id="1">
					<dim>1</dim>
				</port>
				<port id="2">
					<dim>1</dim>
				</port>
				<port id="3">
					<dim>64</dim>
					<dim>1</dim>
					<dim>1</dim>
					<dim>1</dim>
				</port>
				<port id="4">
					<dim>64</dim>
					<dim>1</dim>
					<dim>1</dim>
					<dim>1</dim>
				</port>
			</input>
			<output>
				<port id="5" precision="FP16">
					<dim>64</dim>
					<dim>64</dim>
					<dim>3</dim>
					<dim>3</dim>
				</port>
			</output>
		</layer>
		<layer id="61" name="Conv_10" type="Convolution" version="opset1">
			<data dilations="1,1" output_padding="0,0" pads_begin="1,1" pads_end="1,1" strides="1,1"/>
			<input>
				<port id="0">
					<dim>1</dim>
					<dim>64</dim>
					<dim>248</dim>
					<dim>216</dim>
				</port>
				<port id="1">
					<dim>64</dim>
					<dim>64</dim>
					<dim>3</dim>
					<dim>3</dim>
				</port>
			</input>
			<output>
				<port id="2" precision="FP16">
					<dim>1</dim>
					<dim>64</dim>
					<dim>248</dim>
					<dim>216</dim>
				</port>
			</output>
		</layer>
		<layer id="62" name="data_add_344734523609/EltwiseUnsqueeze3683_const137_const" type="Const" version="opset1">
			<data element_type="f16" offset="148878" shape="1,64,1,1" size="128"/>
			<output>
				<port id="1" precision="FP16">
					<dim>1</dim>
					<dim>64</dim>
					<dim>1</dim>
					<dim>1</dim>
				</port>
			</output>
		</layer>
		<layer id="63" name="BatchNormalization_11/variance/Fused_Add_" type="Add" version="opset1">
			<input>
				<port id="0">
					<dim>1</dim>
					<dim>64</dim>
					<dim>248</dim>
					<dim>216</dim>
				</port>
				<port id="1">
					<dim>1</dim>
					<dim>64</dim>
					<dim>1</dim>
					<dim>1</dim>
				</port>
			</input>
			<output>
				<port id="2" precision="FP16">
					<dim>1</dim>
					<dim>64</dim>
					<dim>248</dim>
					<dim>216</dim>
				</port>
			</output>
		</layer>
		<layer id="64" name="Relu_12" type="ReLU" version="opset1">
			<input>
				<port id="0">
					<dim>1</dim>
					<dim>64</dim>
					<dim>248</dim>
					<dim>216</dim>
				</port>
			</input>
			<output>
				<port id="1" precision="FP16">
					<dim>1</dim>
					<dim>64</dim>
					<dim>248</dim>
					<dim>216</dim>
				</port>
			</output>
		</layer>
		<layer id="65" name="BatchNormalization_14/mean/Fused_Mul_39433945_const140_const" type="Const" version="opset1">
			<data element_type="f16" offset="149006" shape="64,128,1,1" size="16384"/>
			<output>
				<port id="1" precision="FP16">
					<dim>64</dim>
					<dim>128</dim>
					<dim>1</dim>
					<dim>1</dim>
				</port>
			</output>
		</layer>
		<layer id="66" name="ConvTranspose_13" type="ConvolutionBackpropData" version="opset1">
			<data dilations="1,1" output_padding="0,0" pads_begin="0,0" pads_end="0,0" strides="1,1"/>
			<input>
				<port id="0">
					<dim>1</dim>
					<dim>64</dim>
					<dim>248</dim>
					<dim>216</dim>
				</port>
				<port id="1">
					<dim>64</dim>
					<dim>128</dim>
					<dim>1</dim>
					<dim>1</dim>
				</port>
			</input>
			<output>
				<port id="2" precision="FP16">
					<dim>1</dim>
					<dim>128</dim>
					<dim>248</dim>
					<dim>216</dim>
				</port>
			</output>
		</layer>
		<layer id="67" name="data_add_356735723639/EltwiseUnsqueeze3803_const142_const" type="Const" version="opset1">
			<data element_type="f16" offset="165390" shape="1,128,1,1" size="256"/>
			<output>
				<port id="1" precision="FP16">
					<dim>1</dim>
					<dim>128</dim>
					<dim>1</dim>
					<dim>1</dim>
				</port>
			</output>
		</layer>
		<layer id="68" name="BatchNormalization_14/variance/Fused_Add_" type="Add" version="opset1">
			<input>
				<port id="0">
					<dim>1</dim>
					<dim>128</dim>
					<dim>248</dim>
					<dim>216</dim>
				</port>
				<port id="1">
					<dim>1</dim>
					<dim>128</dim>
					<dim>1</dim>
					<dim>1</dim>
				</port>
			</input>
			<output>
				<port id="2" precision="FP16">
					<dim>1</dim>
					<dim>128</dim>
					<dim>248</dim>
					<dim>216</dim>
				</port>
			</output>
		</layer>
		<layer id="69" name="Relu_15" type="ReLU" version="opset1">
			<input>
				<port id="0">
					<dim>1</dim>
					<dim>128</dim>
					<dim>248</dim>
					<dim>216</dim>
				</port>
			</input>
			<output>
				<port id="1" precision="FP16">
					<dim>1</dim>
					<dim>128</dim>
					<dim>248</dim>
					<dim>216</dim>
				</port>
			</output>
		</layer>
		<layer id="70" name="955959_const" type="Const" version="opset1">
			<data element_type="f16" offset="36868" shape="" size="2"/>
			<output>
				<port id="1" precision="FP16"/>
			</output>
		</layer>
		<layer id="71" name="956960_const" type="Const" version="opset1">
			<data element_type="f16" offset="165646" shape="" size="2"/>
			<output>
				<port id="1" precision="FP16"/>
			</output>
		</layer>
		<layer id="72" name="957961_const" type="Const" version="opset1">
			<data element_type="f16" offset="36868" shape="" size="2"/>
			<output>
				<port id="1" precision="FP16"/>
			</output>
		</layer>
		<layer id="73" name="958962_const" type="Const" version="opset1">
			<data element_type="f16" offset="165646" shape="" size="2"/>
			<output>
				<port id="1" precision="FP16"/>
			</output>
		</layer>
		<layer id="74" name="Concat_60/fq_input_0" type="FakeQuantize" version="opset1">
			<data levels="256"/>
			<input>
				<port id="0">
					<dim>1</dim>
					<dim>128</dim>
					<dim>248</dim>
					<dim>216</dim>
				</port>
				<port id="1"/>
				<port id="2"/>
				<port id="3"/>
				<port id="4"/>
			</input>
			<output>
				<port id="5" precision="FP16">
					<dim>1</dim>
					<dim>128</dim>
					<dim>248</dim>
					<dim>216</dim>
				</port>
			</output>
		</layer>
		<layer id="75" name="376380_const" type="Const" version="opset1">
			<data element_type="f16" offset="36868" shape="" size="2"/>
			<output>
				<port id="1" precision="FP16"/>
			</output>
		</layer>
		<layer id="76" name="377381_const" type="Const" version="opset1">
			<data element_type="f16" offset="165648" shape="" size="2"/>
			<output>
				<port id="1" precision="FP16"/>
			</output>
		</layer>
		<layer id="77" name="378382_const" type="Const" version="opset1">
			<data element_type="f16" offset="36868" shape="" size="2"/>
			<output>
				<port id="1" precision="FP16"/>
			</output>
		</layer>
		<layer id="78" name="379383_const" type="Const" version="opset1">
			<data element_type="f16" offset="165648" shape="" size="2"/>
			<output>
				<port id="1" precision="FP16"/>
			</output>
		</layer>
		<layer id="79" name="Conv_17/fq_input_0" type="FakeQuantize" version="opset1">
			<data levels="256"/>
			<input>
				<port id="0">
					<dim>1</dim>
					<dim>64</dim>
					<dim>248</dim>
					<dim>216</dim>
				</port>
				<port id="1"/>
				<port id="2"/>
				<port id="3"/>
				<port id="4"/>
			</input>
			<output>
				<port id="5" precision="FP16">
					<dim>1</dim>
					<dim>64</dim>
					<dim>248</dim>
					<dim>216</dim>
				</port>
			</output>
		</layer>
		<layer id="80" name="Conv_17/fq_weights_1/Convert_to_float/Cast_02011_const" type="Const" version="opset1">
			<data element_type="u8" offset="165650" shape="128,64,3,3" size="73728"/>
			<output>
				<port id="1" precision="U8">
					<dim>128</dim>
					<dim>64</dim>
					<dim>3</dim>
					<dim>3</dim>
				</port>
			</output>
		</layer>
		<layer id="81" name="Conv_17/fq_weights_1/Convert_to_float" type="Convert" version="opset1">
			<data destination_type="f16"/>
			<input>
				<port id="0">
					<dim>128</dim>
					<dim>64</dim>
					<dim>3</dim>
					<dim>3</dim>
				</port>
			</input>
			<output>
				<port id="1" precision="FP16">
					<dim>128</dim>
					<dim>64</dim>
					<dim>3</dim>
					<dim>3</dim>
				</port>
			</output>
		</layer>
		<layer id="82" name="Conv_17/fq_weights_1/Copy/out_low1684_const" type="Const" version="opset1">
			<data element_type="f16" offset="36868" shape="1" size="2"/>
			<output>
				<port id="1" precision="FP16">
					<dim>1</dim>
				</port>
			</output>
		</layer>
		<layer id="83" name="Conv_17/fq_weights_1/Copy/out_high1685_const" type="Const" version="opset1">
			<data element_type="f16" offset="36870" shape="1" size="2"/>
			<output>
				<port id="1" precision="FP16">
					<dim>1</dim>
				</port>
			</output>
		</layer>
		<layer id="84" name="388392_const" type="Const" version="opset1">
			<data element_type="f16" offset="239378" shape="128,1,1,1" size="256"/>
			<output>
				<port id="1" precision="FP16">
					<dim>128</dim>
					<dim>1</dim>
					<dim>1</dim>
					<dim>1</dim>
				</port>
			</output>
		</layer>
		<layer id="85" name="389393_const" type="Const" version="opset1">
			<data element_type="f16" offset="239634" shape="128,1,1,1" size="256"/>
			<output>
				<port id="1" precision="FP16">
					<dim>128</dim>
					<dim>1</dim>
					<dim>1</dim>
					<dim>1</dim>
				</port>
			</output>
		</layer>
		<layer id="86" name="Conv_17/fq_weights_1" type="FakeQuantize" version="opset1">
			<data levels="255"/>
			<input>
				<port id="0">
					<dim>128</dim>
					<dim>64</dim>
					<dim>3</dim>
					<dim>3</dim>
				</port>
				<port id="1">
					<dim>1</dim>
				</port>
				<port id="2">
					<dim>1</dim>
				</port>
				<port id="3">
					<dim>128</dim>
					<dim>1</dim>
					<dim>1</dim>
					<dim>1</dim>
				</port>
				<port id="4">
					<dim>128</dim>
					<dim>1</dim>
					<dim>1</dim>
					<dim>1</dim>
				</port>
			</input>
			<output>
				<port id="5" precision="FP16">
					<dim>128</dim>
					<dim>64</dim>
					<dim>3</dim>
					<dim>3</dim>
				</port>
			</output>
		</layer>
		<layer id="87" name="Conv_17" type="Convolution" version="opset1">
			<data dilations="1,1" output_padding="0,0" pads_begin="1,1" pads_end="1,1" strides="2,2"/>
			<input>
				<port id="0">
					<dim>1</dim>
					<dim>64</dim>
					<dim>248</dim>
					<dim>216</dim>
				</port>
				<port id="1">
					<dim>128</dim>
					<dim>64</dim>
					<dim>3</dim>
					<dim>3</dim>
				</port>
			</input>
			<output>
				<port id="2" precision="FP16">
					<dim>1</dim>
					<dim>128</dim>
					<dim>124</dim>
					<dim>108</dim>
				</port>
			</output>
		</layer>
		<layer id="88" name="data_add_345534603611/EltwiseUnsqueeze3691_const147_const" type="Const" version="opset1">
			<data element_type="f16" offset="239890" shape="1,128,1,1" size="256"/>
			<output>
				<port id="1" precision="FP16">
					<dim>1</dim>
					<dim>128</dim>
					<dim>1</dim>
					<dim>1</dim>
				</port>
			</output>
		</layer>
		<layer id="89" name="BatchNormalization_18/variance/Fused_Add_" type="Add" version="opset1">
			<input>
				<port id="0">
					<dim>1</dim>
					<dim>128</dim>
					<dim>124</dim>
					<dim>108</dim>
				</port>
				<port id="1">
					<dim>1</dim>
					<dim>128</dim>
					<dim>1</dim>
					<dim>1</dim>
				</port>
			</input>
			<output>
				<port id="2" precision="FP16">
					<dim>1</dim>
					<dim>128</dim>
					<dim>124</dim>
					<dim>108</dim>
				</port>
			</output>
		</layer>
		<layer id="90" name="Relu_19" type="ReLU" version="opset1">
			<input>
				<port id="0">
					<dim>1</dim>
					<dim>128</dim>
					<dim>124</dim>
					<dim>108</dim>
				</port>
			</input>
			<output>
				<port id="1" precision="FP16">
					<dim>1</dim>
					<dim>128</dim>
					<dim>124</dim>
					<dim>108</dim>
				</port>
			</output>
		</layer>
		<layer id="91" name="736740_const" type="Const" version="opset1">
			<data element_type="f16" offset="36868" shape="" size="2"/>
			<output>
				<port id="1" precision="FP16"/>
			</output>
		</layer>
		<layer id="92" name="737741_const" type="Const" version="opset1">
			<data element_type="f16" offset="240146" shape="" size="2"/>
			<output>
				<port id="1" precision="FP16"/>
			</output>
		</layer>
		<layer id="93" name="738742_const" type="Const" version="opset1">
			<data element_type="f16" offset="36868" shape="" size="2"/>
			<output>
				<port id="1" precision="FP16"/>
			</output>
		</layer>
		<layer id="94" name="739743_const" type="Const" version="opset1">
			<data element_type="f16" offset="240146" shape="" size="2"/>
			<output>
				<port id="1" precision="FP16"/>
			</output>
		</layer>
		<layer id="95" name="Conv_20/fq_input_0" type="FakeQuantize" version="opset1">
			<data levels="256"/>
			<input>
				<port id="0">
					<dim>1</dim>
					<dim>128</dim>
					<dim>124</dim>
					<dim>108</dim>
				</port>
				<port id="1"/>
				<port id="2"/>
				<port id="3"/>
				<port id="4"/>
			</input>
			<output>
				<port id="5" precision="FP16">
					<dim>1</dim>
					<dim>128</dim>
					<dim>124</dim>
					<dim>108</dim>
				</port>
			</output>
		</layer>
		<layer id="96" name="Conv_20/fq_weights_1/Convert_to_float/Cast_01997_const" type="Const" version="opset1">
			<data element_type="u8" offset="240148" shape="128,128,3,3" size="147456"/>
			<output>
				<port id="1" precision="U8">
					<dim>128</dim>
					<dim>128</dim>
					<dim>3</dim>
					<dim>3</dim>
				</port>
			</output>
		</layer>
		<layer id="97" name="Conv_20/fq_weights_1/Convert_to_float" type="Convert" version="opset1">
			<data destination_type="f16"/>
			<input>
				<port id="0">
					<dim>128</dim>
					<dim>128</dim>
					<dim>3</dim>
					<dim>3</dim>
				</port>
			</input>
			<output>
				<port id="1" precision="FP16">
					<dim>128</dim>
					<dim>128</dim>
					<dim>3</dim>
					<dim>3</dim>
				</port>
			</output>
		</layer>
		<layer id="98" name="Conv_20/fq_weights_1/Copy/out_low1772_const" type="Const" version="opset1">
			<data element_type="f16" offset="36868" shape="1" size="2"/>
			<output>
				<port id="1" precision="FP16">
					<dim>1</dim>
				</port>
			</output>
		</layer>
		<layer id="99" name="Conv_20/fq_weights_1/Copy/out_high1773_const" type="Const" version="opset1">
			<data element_type="f16" offset="36870" shape="1" size="2"/>
			<output>
				<port id="1" precision="FP16">
					<dim>1</dim>
				</port>
			</output>
		</layer>
		<layer id="100" name="748752_const" type="Const" version="opset1">
			<data element_type="f16" offset="387604" shape="128,1,1,1" size="256"/>
			<output>
				<port id="1" precision="FP16">
					<dim>128</dim>
					<dim>1</dim>
					<dim>1</dim>
					<dim>1</dim>
				</port>
			</output>
		</layer>
		<layer id="101" name="749753_const" type="Const" version="opset1">
			<data element_type="f16" offset="387860" shape="128,1,1,1" size="256"/>
			<output>
				<port id="1" precision="FP16">
					<dim>128</dim>
					<dim>1</dim>
					<dim>1</dim>
					<dim>1</dim>
				</port>
			</output>
		</layer>
		<layer id="102" name="Conv_20/fq_weights_1" type="FakeQuantize" version="opset1">
			<data levels="255"/>
			<input>
				<port id="0">
					<dim>128</dim>
					<dim>128</dim>
					<dim>3</dim>
					<dim>3</dim>
				</port>
				<port id="1">
					<dim>1</dim>
				</port>
				<port id="2">
					<dim>1</dim>
				</port>
				<port id="3">
					<dim>128</dim>
					<dim>1</dim>
					<dim>1</dim>
					<dim>1</dim>
				</port>
				<port id="4">
					<dim>128</dim>
					<dim>1</dim>
					<dim>1</dim>
					<dim>1</dim>
				</port>
			</input>
			<output>
				<port id="5" precision="FP16">
					<dim>128</dim>
					<dim>128</dim>
					<dim>3</dim>
					<dim>3</dim>
				</port>
			</output>
		</layer>
		<layer id="103" name="Conv_20" type="Convolution" version="opset1">
			<data dilations="1,1" output_padding="0,0" pads_begin="1,1" pads_end="1,1" strides="1,1"/>
			<input>
				<port id="0">
					<dim>1</dim>
					<dim>128</dim>
					<dim>124</dim>
					<dim>108</dim>
				</port>
				<port id="1">
					<dim>128</dim>
					<dim>128</dim>
					<dim>3</dim>
					<dim>3</dim>
				</port>
			</input>
			<output>
				<port id="2" precision="FP16">
					<dim>1</dim>
					<dim>128</dim>
					<dim>124</dim>
					<dim>108</dim>
				</port>
			</output>
		</layer>
		<layer id="104" name="data_add_346334683613/EltwiseUnsqueeze3699_const152_const" type="Const" version="opset1">
			<data element_type="f16" offset="388116" shape="1,128,1,1" size="256"/>
			<output>
				<port id="1" precision="FP16">
					<dim>1</dim>
					<dim>128</dim>
					<dim>1</dim>
					<dim>1</dim>
				</port>
			</output>
		</layer>
		<layer id="105" name="BatchNormalization_21/variance/Fused_Add_" type="Add" version="opset1">
			<input>
				<port id="0">
					<dim>1</dim>
					<dim>128</dim>
					<dim>124</dim>
					<dim>108</dim>
				</port>
				<port id="1">
					<dim>1</dim>
					<dim>128</dim>
					<dim>1</dim>
					<dim>1</dim>
				</port>
			</input>
			<output>
				<port id="2" precision="FP16">
					<dim>1</dim>
					<dim>128</dim>
					<dim>124</dim>
					<dim>108</dim>
				</port>
			</output>
		</layer>
		<layer id="106" name="Relu_22" type="ReLU" version="opset1">
			<input>
				<port id="0">
					<dim>1</dim>
					<dim>128</dim>
					<dim>124</dim>
					<dim>108</dim>
				</port>
			</input>
			<output>
				<port id="1" precision="FP16">
					<dim>1</dim>
					<dim>128</dim>
					<dim>124</dim>
					<dim>108</dim>
				</port>
			</output>
		</layer>
		<layer id="107" name="556560_const" type="Const" version="opset1">
			<data element_type="f16" offset="36868" shape="" size="2"/>
			<output>
				<port id="1" precision="FP16"/>
			</output>
		</layer>
		<layer id="108" name="557561_const" type="Const" version="opset1">
			<data element_type="f16" offset="388372" shape="" size="2"/>
			<output>
				<port id="1" precision="FP16"/>
			</output>
		</layer>
		<layer id="109" name="558562_const" type="Const" version="opset1">
			<data element_type="f16" offset="36868" shape="" size="2"/>
			<output>
				<port id="1" precision="FP16"/>
			</output>
		</layer>
		<layer id="110" name="559563_const" type="Const" version="opset1">
			<data element_type="f16" offset="388372" shape="" size="2"/>
			<output>
				<port id="1" precision="FP16"/>
			</output>
		</layer>
		<layer id="111" name="Conv_23/fq_input_0" type="FakeQuantize" version="opset1">
			<data levels="256"/>
			<input>
				<port id="0">
					<dim>1</dim>
					<dim>128</dim>
					<dim>124</dim>
					<dim>108</dim>
				</port>
				<port id="1"/>
				<port id="2"/>
				<port id="3"/>
				<port id="4"/>
			</input>
			<output>
				<port id="5" precision="FP16">
					<dim>1</dim>
					<dim>128</dim>
					<dim>124</dim>
					<dim>108</dim>
				</port>
			</output>
		</layer>
		<layer id="112" name="Conv_23/fq_weights_1/Convert_to_float/Cast_02007_const" type="Const" version="opset1">
			<data element_type="u8" offset="388374" shape="128,128,3,3" size="147456"/>
			<output>
				<port id="1" precision="U8">
					<dim>128</dim>
					<dim>128</dim>
					<dim>3</dim>
					<dim>3</dim>
				</port>
			</output>
		</layer>
		<layer id="113" name="Conv_23/fq_weights_1/Convert_to_float" type="Convert" version="opset1">
			<data destination_type="f16"/>
			<input>
				<port id="0">
					<dim>128</dim>
					<dim>128</dim>
					<dim>3</dim>
					<dim>3</dim>
				</port>
			</input>
			<output>
				<port id="1" precision="FP16">
					<dim>128</dim>
					<dim>128</dim>
					<dim>3</dim>
					<dim>3</dim>
				</port>
			</output>
		</layer>
		<layer id="114" name="Conv_23/fq_weights_1/Copy/out_low1700_const" type="Const" version="opset1">
			<data element_type="f16" offset="36868" shape="1" size="2"/>
			<output>
				<port id="1" precision="FP16">
					<dim>1</dim>
				</port>
			</output>
		</layer>
		<layer id="115" name="Conv_23/fq_weights_1/Copy/out_high1701_const" type="Const" version="opset1">
			<data element_type="f16" offset="36870" shape="1" size="2"/>
			<output>
				<port id="1" precision="FP16">
					<dim>1</dim>
				</port>
			</output>
		</layer>
		<layer id="116" name="568572_const" type="Const" version="opset1">
			<data element_type="f16" offset="535830" shape="128,1,1,1" size="256"/>
			<output>
				<port id="1" precision="FP16">
					<dim>128</dim>
					<dim>1</dim>
					<dim>1</dim>
					<dim>1</dim>
				</port>
			</output>
		</layer>
		<layer id="117" name="569573_const" type="Const" version="opset1">
			<data element_type="f16" offset="536086" shape="128,1,1,1" size="256"/>
			<output>
				<port id="1" precision="FP16">
					<dim>128</dim>
					<dim>1</dim>
					<dim>1</dim>
					<dim>1</dim>
				</port>
			</output>
		</layer>
		<layer id="118" name="Conv_23/fq_weights_1" type="FakeQuantize" version="opset1">
			<data levels="255"/>
			<input>
				<port id="0">
					<dim>128</dim>
					<dim>128</dim>
					<dim>3</dim>
					<dim>3</dim>
				</port>
				<port id="1">
					<dim>1</dim>
				</port>
				<port id="2">
					<dim>1</dim>
				</port>
				<port id="3">
					<dim>128</dim>
					<dim>1</dim>
					<dim>1</dim>
					<dim>1</dim>
				</port>
				<port id="4">
					<dim>128</dim>
					<dim>1</dim>
					<dim>1</dim>
					<dim>1</dim>
				</port>
			</input>
			<output>
				<port id="5" precision="FP16">
					<dim>128</dim>
					<dim>128</dim>
					<dim>3</dim>
					<dim>3</dim>
				</port>
			</output>
		</layer>
		<layer id="119" name="Conv_23" type="Convolution" version="opset1">
			<data dilations="1,1" output_padding="0,0" pads_begin="1,1" pads_end="1,1" strides="1,1"/>
			<input>
				<port id="0">
					<dim>1</dim>
					<dim>128</dim>
					<dim>124</dim>
					<dim>108</dim>
				</port>
				<port id="1">
					<dim>128</dim>
					<dim>128</dim>
					<dim>3</dim>
					<dim>3</dim>
				</port>
			</input>
			<output>
				<port id="2" precision="FP16">
					<dim>1</dim>
					<dim>128</dim>
					<dim>124</dim>
					<dim>108</dim>
				</port>
			</output>
		</layer>
		<layer id="120" name="data_add_347134763615/EltwiseUnsqueeze3707_const157_const" type="Const" version="opset1">
			<data element_type="f16" offset="536342" shape="1,128,1,1" size="256"/>
			<output>
				<port id="1" precision="FP16">
					<dim>1</dim>
					<dim>128</dim>
					<dim>1</dim>
					<dim>1</dim>
				</port>
			</output>
		</layer>
		<layer id="121" name="BatchNormalization_24/variance/Fused_Add_" type="Add" version="opset1">
			<input>
				<port id="0">
					<dim>1</dim>
					<dim>128</dim>
					<dim>124</dim>
					<dim>108</dim>
				</port>
				<port id="1">
					<dim>1</dim>
					<dim>128</dim>
					<dim>1</dim>
					<dim>1</dim>
				</port>
			</input>
			<output>
				<port id="2" precision="FP16">
					<dim>1</dim>
					<dim>128</dim>
					<dim>124</dim>
					<dim>108</dim>
				</port>
			</output>
		</layer>
		<layer id="122" name="Relu_25" type="ReLU" version="opset1">
			<input>
				<port id="0">
					<dim>1</dim>
					<dim>128</dim>
					<dim>124</dim>
					<dim>108</dim>
				</port>
			</input>
			<output>
				<port id="1" precision="FP16">
					<dim>1</dim>
					<dim>128</dim>
					<dim>124</dim>
					<dim>108</dim>
				</port>
			</output>
		</layer>
		<layer id="123" name="416420_const" type="Const" version="opset1">
			<data element_type="f16" offset="36868" shape="" size="2"/>
			<output>
				<port id="1" precision="FP16"/>
			</output>
		</layer>
		<layer id="124" name="417421_const" type="Const" version="opset1">
			<data element_type="f16" offset="536598" shape="" size="2"/>
			<output>
				<port id="1" precision="FP16"/>
			</output>
		</layer>
		<layer id="125" name="418422_const" type="Const" version="opset1">
			<data element_type="f16" offset="36868" shape="" size="2"/>
			<output>
				<port id="1" precision="FP16"/>
			</output>
		</layer>
		<layer id="126" name="419423_const" type="Const" version="opset1">
			<data element_type="f16" offset="536598" shape="" size="2"/>
			<output>
				<port id="1" precision="FP16"/>
			</output>
		</layer>
		<layer id="127" name="Conv_26/fq_input_0" type="FakeQuantize" version="opset1">
			<data levels="256"/>
			<input>
				<port id="0">
					<dim>1</dim>
					<dim>128</dim>
					<dim>124</dim>
					<dim>108</dim>
				</port>
				<port id="1"/>
				<port id="2"/>
				<port id="3"/>
				<port id="4"/>
			</input>
			<output>
				<port id="5" precision="FP16">
					<dim>1</dim>
					<dim>128</dim>
					<dim>124</dim>
					<dim>108</dim>
				</port>
			</output>
		</layer>
		<layer id="128" name="Conv_26/fq_weights_1/Convert_to_float/Cast_02027_const" type="Const" version="opset1">
			<data element_type="u8" offset="536600" shape="128,128,3,3" size="147456"/>
			<output>
				<port id="1" precision="U8">
					<dim>128</dim>
					<dim>128</dim>
					<dim>3</dim>
					<dim>3</dim>
				</port>
			</output>
		</layer>
		<layer id="129" name="Conv_26/fq_weights_1/Convert_to_float" type="Convert" version="opset1">
			<data destination_type="f16"/>
			<input>
				<port id="0">
					<dim>128</dim>
					<dim>128</dim>
					<dim>3</dim>
					<dim>3</dim>
				</port>
			</input>
			<output>
				<port id="1" precision="FP16">
					<dim>128</dim>
					<dim>128</dim>
					<dim>3</dim>
					<dim>3</dim>
				</port>
			</output>
		</layer>
		<layer id="130" name="Conv_26/fq_weights_1/Copy/out_low1644_const" type="Const" version="opset1">
			<data element_type="f16" offset="36868" shape="1" size="2"/>
			<output>
				<port id="1" precision="FP16">
					<dim>1</dim>
				</port>
			</output>
		</layer>
		<layer id="131" name="Conv_26/fq_weights_1/Copy/out_high1645_const" type="Const" version="opset1">
			<data element_type="f16" offset="36870" shape="1" size="2"/>
			<output>
				<port id="1" precision="FP16">
					<dim>1</dim>
				</port>
			</output>
		</layer>
		<layer id="132" name="428432_const" type="Const" version="opset1">
			<data element_type="f16" offset="684056" shape="128,1,1,1" size="256"/>
			<output>
				<port id="1" precision="FP16">
					<dim>128</dim>
					<dim>1</dim>
					<dim>1</dim>
					<dim>1</dim>
				</port>
			</output>
		</layer>
		<layer id="133" name="429433_const" type="Const" version="opset1">
			<data element_type="f16" offset="684312" shape="128,1,1,1" size="256"/>
			<output>
				<port id="1" precision="FP16">
					<dim>128</dim>
					<dim>1</dim>
					<dim>1</dim>
					<dim>1</dim>
				</port>
			</output>
		</layer>
		<layer id="134" name="Conv_26/fq_weights_1" type="FakeQuantize" version="opset1">
			<data levels="255"/>
			<input>
				<port id="0">
					<dim>128</dim>
					<dim>128</dim>
					<dim>3</dim>
					<dim>3</dim>
				</port>
				<port id="1">
					<dim>1</dim>
				</port>
				<port id="2">
					<dim>1</dim>
				</port>
				<port id="3">
					<dim>128</dim>
					<dim>1</dim>
					<dim>1</dim>
					<dim>1</dim>
				</port>
				<port id="4">
					<dim>128</dim>
					<dim>1</dim>
					<dim>1</dim>
					<dim>1</dim>
				</port>
			</input>
			<output>
				<port id="5" precision="FP16">
					<dim>128</dim>
					<dim>128</dim>
					<dim>3</dim>
					<dim>3</dim>
				</port>
			</output>
		</layer>
		<layer id="135" name="Conv_26" type="Convolution" version="opset1">
			<data dilations="1,1" output_padding="0,0" pads_begin="1,1" pads_end="1,1" strides="1,1"/>
			<input>
				<port id="0">
					<dim>1</dim>
					<dim>128</dim>
					<dim>124</dim>
					<dim>108</dim>
				</port>
				<port id="1">
					<dim>128</dim>
					<dim>128</dim>
					<dim>3</dim>
					<dim>3</dim>
				</port>
			</input>
			<output>
				<port id="2" precision="FP16">
					<dim>1</dim>
					<dim>128</dim>
					<dim>124</dim>
					<dim>108</dim>
				</port>
			</output>
		</layer>
		<layer id="136" name="data_add_347934843617/EltwiseUnsqueeze3715_const162_const" type="Const" version="opset1">
			<data element_type="f16" offset="684568" shape="1,128,1,1" size="256"/>
			<output>
				<port id="1" precision="FP16">
					<dim>1</dim>
					<dim>128</dim>
					<dim>1</dim>
					<dim>1</dim>
				</port>
			</output>
		</layer>
		<layer id="137" name="BatchNormalization_27/variance/Fused_Add_" type="Add" version="opset1">
			<input>
				<port id="0">
					<dim>1</dim>
					<dim>128</dim>
					<dim>124</dim>
					<dim>108</dim>
				</port>
				<port id="1">
					<dim>1</dim>
					<dim>128</dim>
					<dim>1</dim>
					<dim>1</dim>
				</port>
			</input>
			<output>
				<port id="2" precision="FP16">
					<dim>1</dim>
					<dim>128</dim>
					<dim>124</dim>
					<dim>108</dim>
				</port>
			</output>
		</layer>
		<layer id="138" name="Relu_28" type="ReLU" version="opset1">
			<input>
				<port id="0">
					<dim>1</dim>
					<dim>128</dim>
					<dim>124</dim>
					<dim>108</dim>
				</port>
			</input>
			<output>
				<port id="1" precision="FP16">
					<dim>1</dim>
					<dim>128</dim>
					<dim>124</dim>
					<dim>108</dim>
				</port>
			</output>
		</layer>
		<layer id="139" name="596600_const" type="Const" version="opset1">
			<data element_type="f16" offset="36868" shape="" size="2"/>
			<output>
				<port id="1" precision="FP16"/>
			</output>
		</layer>
		<layer id="140" name="597601_const" type="Const" version="opset1">
			<data element_type="f16" offset="684824" shape="" size="2"/>
			<output>
				<port id="1" precision="FP16"/>
			</output>
		</layer>
		<layer id="141" name="598602_const" type="Const" version="opset1">
			<data element_type="f16" offset="36868" shape="" size="2"/>
			<output>
				<port id="1" precision="FP16"/>
			</output>
		</layer>
		<layer id="142" name="599603_const" type="Const" version="opset1">
			<data element_type="f16" offset="684824" shape="" size="2"/>
			<output>
				<port id="1" precision="FP16"/>
			</output>
		</layer>
		<layer id="143" name="Conv_29/fq_input_0" type="FakeQuantize" version="opset1">
			<data levels="256"/>
			<input>
				<port id="0">
					<dim>1</dim>
					<dim>128</dim>
					<dim>124</dim>
					<dim>108</dim>
				</port>
				<port id="1"/>
				<port id="2"/>
				<port id="3"/>
				<port id="4"/>
			</input>
			<output>
				<port id="5" precision="FP16">
					<dim>1</dim>
					<dim>128</dim>
					<dim>124</dim>
					<dim>108</dim>
				</port>
			</output>
		</layer>
		<layer id="144" name="Conv_29/fq_weights_1/Convert_to_float/Cast_02009_const" type="Const" version="opset1">
			<data element_type="u8" offset="684826" shape="128,128,3,3" size="147456"/>
			<output>
				<port id="1" precision="U8">
					<dim>128</dim>
					<dim>128</dim>
					<dim>3</dim>
					<dim>3</dim>
				</port>
			</output>
		</layer>
		<layer id="145" name="Conv_29/fq_weights_1/Convert_to_float" type="Convert" version="opset1">
			<data destination_type="f16"/>
			<input>
				<port id="0">
					<dim>128</dim>
					<dim>128</dim>
					<dim>3</dim>
					<dim>3</dim>
				</port>
			</input>
			<output>
				<port id="1" precision="FP16">
					<dim>128</dim>
					<dim>128</dim>
					<dim>3</dim>
					<dim>3</dim>
				</port>
			</output>
		</layer>
		<layer id="146" name="Conv_29/fq_weights_1/Copy/out_low1748_const" type="Const" version="opset1">
			<data element_type="f16" offset="36868" shape="1" size="2"/>
			<output>
				<port id="1" precision="FP16">
					<dim>1</dim>
				</port>
			</output>
		</layer>
		<layer id="147" name="Conv_29/fq_weights_1/Copy/out_high1749_const" type="Const" version="opset1">
			<data element_type="f16" offset="36870" shape="1" size="2"/>
			<output>
				<port id="1" precision="FP16">
					<dim>1</dim>
				</port>
			</output>
		</layer>
		<layer id="148" name="608612_const" type="Const" version="opset1">
			<data element_type="f16" offset="832282" shape="128,1,1,1" size="256"/>
			<output>
				<port id="1" precision="FP16">
					<dim>128</dim>
					<dim>1</dim>
					<dim>1</dim>
					<dim>1</dim>
				</port>
			</output>
		</layer>
		<layer id="149" name="609613_const" type="Const" version="opset1">
			<data element_type="f16" offset="832538" shape="128,1,1,1" size="256"/>
			<output>
				<port id="1" precision="FP16">
					<dim>128</dim>
					<dim>1</dim>
					<dim>1</dim>
					<dim>1</dim>
				</port>
			</output>
		</layer>
		<layer id="150" name="Conv_29/fq_weights_1" type="FakeQuantize" version="opset1">
			<data levels="255"/>
			<input>
				<port id="0">
					<dim>128</dim>
					<dim>128</dim>
					<dim>3</dim>
					<dim>3</dim>
				</port>
				<port id="1">
					<dim>1</dim>
				</port>
				<port id="2">
					<dim>1</dim>
				</port>
				<port id="3">
					<dim>128</dim>
					<dim>1</dim>
					<dim>1</dim>
					<dim>1</dim>
				</port>
				<port id="4">
					<dim>128</dim>
					<dim>1</dim>
					<dim>1</dim>
					<dim>1</dim>
				</port>
			</input>
			<output>
				<port id="5" precision="FP16">
					<dim>128</dim>
					<dim>128</dim>
					<dim>3</dim>
					<dim>3</dim>
				</port>
			</output>
		</layer>
		<layer id="151" name="Conv_29" type="Convolution" version="opset1">
			<data dilations="1,1" output_padding="0,0" pads_begin="1,1" pads_end="1,1" strides="1,1"/>
			<input>
				<port id="0">
					<dim>1</dim>
					<dim>128</dim>
					<dim>124</dim>
					<dim>108</dim>
				</port>
				<port id="1">
					<dim>128</dim>
					<dim>128</dim>
					<dim>3</dim>
					<dim>3</dim>
				</port>
			</input>
			<output>
				<port id="2" precision="FP16">
					<dim>1</dim>
					<dim>128</dim>
					<dim>124</dim>
					<dim>108</dim>
				</port>
			</output>
		</layer>
		<layer id="152" name="data_add_348734923619/EltwiseUnsqueeze3723_const167_const" type="Const" version="opset1">
			<data element_type="f16" offset="832794" shape="1,128,1,1" size="256"/>
			<output>
				<port id="1" precision="FP16">
					<dim>1</dim>
					<dim>128</dim>
					<dim>1</dim>
					<dim>1</dim>
				</port>
			</output>
		</layer>
		<layer id="153" name="BatchNormalization_30/variance/Fused_Add_" type="Add" version="opset1">
			<input>
				<port id="0">
					<dim>1</dim>
					<dim>128</dim>
					<dim>124</dim>
					<dim>108</dim>
				</port>
				<port id="1">
					<dim>1</dim>
					<dim>128</dim>
					<dim>1</dim>
					<dim>1</dim>
				</port>
			</input>
			<output>
				<port id="2" precision="FP16">
					<dim>1</dim>
					<dim>128</dim>
					<dim>124</dim>
					<dim>108</dim>
				</port>
			</output>
		</layer>
		<layer id="154" name="Relu_31" type="ReLU" version="opset1">
			<input>
				<port id="0">
					<dim>1</dim>
					<dim>128</dim>
					<dim>124</dim>
					<dim>108</dim>
				</port>
			</input>
			<output>
				<port id="1" precision="FP16">
					<dim>1</dim>
					<dim>128</dim>
					<dim>124</dim>
					<dim>108</dim>
				</port>
			</output>
		</layer>
		<layer id="155" name="396400_const" type="Const" version="opset1">
			<data element_type="f16" offset="36868" shape="" size="2"/>
			<output>
				<port id="1" precision="FP16"/>
			</output>
		</layer>
		<layer id="156" name="397401_const" type="Const" version="opset1">
			<data element_type="f16" offset="833050" shape="" size="2"/>
			<output>
				<port id="1" precision="FP16"/>
			</output>
		</layer>
		<layer id="157" name="398402_const" type="Const" version="opset1">
			<data element_type="f16" offset="36868" shape="" size="2"/>
			<output>
				<port id="1" precision="FP16"/>
			</output>
		</layer>
		<layer id="158" name="399403_const" type="Const" version="opset1">
			<data element_type="f16" offset="833050" shape="" size="2"/>
			<output>
				<port id="1" precision="FP16"/>
			</output>
		</layer>
		<layer id="159" name="Conv_32/fq_input_0" type="FakeQuantize" version="opset1">
			<data levels="256"/>
			<input>
				<port id="0">
					<dim>1</dim>
					<dim>128</dim>
					<dim>124</dim>
					<dim>108</dim>
				</port>
				<port id="1"/>
				<port id="2"/>
				<port id="3"/>
				<port id="4"/>
			</input>
			<output>
				<port id="5" precision="FP16">
					<dim>1</dim>
					<dim>128</dim>
					<dim>124</dim>
					<dim>108</dim>
				</port>
			</output>
		</layer>
		<layer id="160" name="Conv_32/fq_weights_1/Convert_to_float/Cast_01993_const" type="Const" version="opset1">
			<data element_type="u8" offset="833052" shape="128,128,3,3" size="147456"/>
			<output>
				<port id="1" precision="U8">
					<dim>128</dim>
					<dim>128</dim>
					<dim>3</dim>
					<dim>3</dim>
				</port>
			</output>
		</layer>
		<layer id="161" name="Conv_32/fq_weights_1/Convert_to_float" type="Convert" version="opset1">
			<data destination_type="f16"/>
			<input>
				<port id="0">
					<dim>128</dim>
					<dim>128</dim>
					<dim>3</dim>
					<dim>3</dim>
				</port>
			</input>
			<output>
				<port id="1" precision="FP16">
					<dim>128</dim>
					<dim>128</dim>
					<dim>3</dim>
					<dim>3</dim>
				</port>
			</output>
		</layer>
		<layer id="162" name="Conv_32/fq_weights_1/Copy/out_low1716_const" type="Const" version="opset1">
			<data element_type="f16" offset="36868" shape="1" size="2"/>
			<output>
				<port id="1" precision="FP16">
					<dim>1</dim>
				</port>
			</output>
		</layer>
		<layer id="163" name="Conv_32/fq_weights_1/Copy/out_high1717_const" type="Const" version="opset1">
			<data element_type="f16" offset="36870" shape="1" size="2"/>
			<output>
				<port id="1" precision="FP16">
					<dim>1</dim>
				</port>
			</output>
		</layer>
		<layer id="164" name="408412_const" type="Const" version="opset1">
			<data element_type="f16" offset="980508" shape="128,1,1,1" size="256"/>
			<output>
				<port id="1" precision="FP16">
					<dim>128</dim>
					<dim>1</dim>
					<dim>1</dim>
					<dim>1</dim>
				</port>
			</output>
		</layer>
		<layer id="165" name="409413_const" type="Const" version="opset1">
			<data element_type="f16" offset="980764" shape="128,1,1,1" size="256"/>
			<output>
				<port id="1" precision="FP16">
					<dim>128</dim>
					<dim>1</dim>
					<dim>1</dim>
					<dim>1</dim>
				</port>
			</output>
		</layer>
		<layer id="166" name="Conv_32/fq_weights_1" type="FakeQuantize" version="opset1">
			<data levels="255"/>
			<input>
				<port id="0">
					<dim>128</dim>
					<dim>128</dim>
					<dim>3</dim>
					<dim>3</dim>
				</port>
				<port id="1">
					<dim>1</dim>
				</port>
				<port id="2">
					<dim>1</dim>
				</port>
				<port id="3">
					<dim>128</dim>
					<dim>1</dim>
					<dim>1</dim>
					<dim>1</dim>
				</port>
				<port id="4">
					<dim>128</dim>
					<dim>1</dim>
					<dim>1</dim>
					<dim>1</dim>
				</port>
			</input>
			<output>
				<port id="5" precision="FP16">
					<dim>128</dim>
					<dim>128</dim>
					<dim>3</dim>
					<dim>3</dim>
				</port>
			</output>
		</layer>
		<layer id="167" name="Conv_32" type="Convolution" version="opset1">
			<data dilations="1,1" output_padding="0,0" pads_begin="1,1" pads_end="1,1" strides="1,1"/>
			<input>
				<port id="0">
					<dim>1</dim>
					<dim>128</dim>
					<dim>124</dim>
					<dim>108</dim>
				</port>
				<port id="1">
					<dim>128</dim>
					<dim>128</dim>
					<dim>3</dim>
					<dim>3</dim>
				</port>
			</input>
			<output>
				<port id="2" precision="FP16">
					<dim>1</dim>
					<dim>128</dim>
					<dim>124</dim>
					<dim>108</dim>
				</port>
			</output>
		</layer>
		<layer id="168" name="data_add_349535003621/EltwiseUnsqueeze3731_const172_const" type="Const" version="opset1">
			<data element_type="f16" offset="981020" shape="1,128,1,1" size="256"/>
			<output>
				<port id="1" precision="FP16">
					<dim>1</dim>
					<dim>128</dim>
					<dim>1</dim>
					<dim>1</dim>
				</port>
			</output>
		</layer>
		<layer id="169" name="BatchNormalization_33/variance/Fused_Add_" type="Add" version="opset1">
			<input>
				<port id="0">
					<dim>1</dim>
					<dim>128</dim>
					<dim>124</dim>
					<dim>108</dim>
				</port>
				<port id="1">
					<dim>1</dim>
					<dim>128</dim>
					<dim>1</dim>
					<dim>1</dim>
				</port>
			</input>
			<output>
				<port id="2" precision="FP16">
					<dim>1</dim>
					<dim>128</dim>
					<dim>124</dim>
					<dim>108</dim>
				</port>
			</output>
		</layer>
		<layer id="170" name="Relu_34" type="ReLU" version="opset1">
			<input>
				<port id="0">
					<dim>1</dim>
					<dim>128</dim>
					<dim>124</dim>
					<dim>108</dim>
				</port>
			</input>
			<output>
				<port id="1" precision="FP16">
					<dim>1</dim>
					<dim>128</dim>
					<dim>124</dim>
					<dim>108</dim>
				</port>
			</output>
		</layer>
		<layer id="171" name="BatchNormalization_36/mean/Fused_Mul_39393941_const175_const" type="Const" version="opset1">
			<data element_type="f16" offset="981276" shape="128,128,2,2" size="131072"/>
			<output>
				<port id="1" precision="FP16">
					<dim>128</dim>
					<dim>128</dim>
					<dim>2</dim>
					<dim>2</dim>
				</port>
			</output>
		</layer>
		<layer id="172" name="ConvTranspose_35" type="ConvolutionBackpropData" version="opset1">
			<data dilations="1,1" output_padding="0,0" pads_begin="0,0" pads_end="0,0" strides="2,2"/>
			<input>
				<port id="0">
					<dim>1</dim>
					<dim>128</dim>
					<dim>124</dim>
					<dim>108</dim>
				</port>
				<port id="1">
					<dim>128</dim>
					<dim>128</dim>
					<dim>2</dim>
					<dim>2</dim>
				</port>
			</input>
			<output>
				<port id="2" precision="FP16">
					<dim>1</dim>
					<dim>128</dim>
					<dim>248</dim>
					<dim>216</dim>
				</port>
			</output>
		</layer>
		<layer id="173" name="data_add_355935643637/EltwiseUnsqueeze3795_const177_const" type="Const" version="opset1">
			<data element_type="f16" offset="1112348" shape="1,128,1,1" size="256"/>
			<output>
				<port id="1" precision="FP16">
					<dim>1</dim>
					<dim>128</dim>
					<dim>1</dim>
					<dim>1</dim>
				</port>
			</output>
		</layer>
		<layer id="174" name="BatchNormalization_36/variance/Fused_Add_" type="Add" version="opset1">
			<input>
				<port id="0">
					<dim>1</dim>
					<dim>128</dim>
					<dim>248</dim>
					<dim>216</dim>
				</port>
				<port id="1">
					<dim>1</dim>
					<dim>128</dim>
					<dim>1</dim>
					<dim>1</dim>
				</port>
			</input>
			<output>
				<port id="2" precision="FP16">
					<dim>1</dim>
					<dim>128</dim>
					<dim>248</dim>
					<dim>216</dim>
				</port>
			</output>
		</layer>
		<layer id="175" name="Relu_37" type="ReLU" version="opset1">
			<input>
				<port id="0">
					<dim>1</dim>
					<dim>128</dim>
					<dim>248</dim>
					<dim>216</dim>
				</port>
			</input>
			<output>
				<port id="1" precision="FP16">
					<dim>1</dim>
					<dim>128</dim>
					<dim>248</dim>
					<dim>216</dim>
				</port>
			</output>
		</layer>
		<layer id="176" name="965969_const" type="Const" version="opset1">
			<data element_type="f16" offset="36868" shape="" size="2"/>
			<output>
				<port id="1" precision="FP16"/>
			</output>
		</layer>
		<layer id="177" name="966970_const" type="Const" version="opset1">
			<data element_type="f16" offset="1112604" shape="" size="2"/>
			<output>
				<port id="1" precision="FP16"/>
			</output>
		</layer>
		<layer id="178" name="967971_const" type="Const" version="opset1">
			<data element_type="f16" offset="36868" shape="" size="2"/>
			<output>
				<port id="1" precision="FP16"/>
			</output>
		</layer>
		<layer id="179" name="968972_const" type="Const" version="opset1">
			<data element_type="f16" offset="1112604" shape="" size="2"/>
			<output>
				<port id="1" precision="FP16"/>
			</output>
		</layer>
		<layer id="180" name="Concat_60/fq_input_1" type="FakeQuantize" version="opset1">
			<data levels="256"/>
			<input>
				<port id="0">
					<dim>1</dim>
					<dim>128</dim>
					<dim>248</dim>
					<dim>216</dim>
				</port>
				<port id="1"/>
				<port id="2"/>
				<port id="3"/>
				<port id="4"/>
			</input>
			<output>
				<port id="5" precision="FP16">
					<dim>1</dim>
					<dim>128</dim>
					<dim>248</dim>
					<dim>216</dim>
				</port>
			</output>
		</layer>
		<layer id="181" name="476480_const" type="Const" version="opset1">
			<data element_type="f16" offset="36868" shape="" size="2"/>
			<output>
				<port id="1" precision="FP16"/>
			</output>
		</layer>
		<layer id="182" name="477481_const" type="Const" version="opset1">
			<data element_type="f16" offset="1112606" shape="" size="2"/>
			<output>
				<port id="1" precision="FP16"/>
			</output>
		</layer>
		<layer id="183" name="478482_const" type="Const" version="opset1">
			<data element_type="f16" offset="36868" shape="" size="2"/>
			<output>
				<port id="1" precision="FP16"/>
			</output>
		</layer>
		<layer id="184" name="479483_const" type="Const" version="opset1">
			<data element_type="f16" offset="1112606" shape="" size="2"/>
			<output>
				<port id="1" precision="FP16"/>
			</output>
		</layer>
		<layer id="185" name="Conv_39/fq_input_0" type="FakeQuantize" version="opset1">
			<data levels="256"/>
			<input>
				<port id="0">
					<dim>1</dim>
					<dim>128</dim>
					<dim>124</dim>
					<dim>108</dim>
				</port>
				<port id="1"/>
				<port id="2"/>
				<port id="3"/>
				<port id="4"/>
			</input>
			<output>
				<port id="5" precision="FP16">
					<dim>1</dim>
					<dim>128</dim>
					<dim>124</dim>
					<dim>108</dim>
				</port>
			</output>
		</layer>
		<layer id="186" name="Conv_39/fq_weights_1/Convert_to_float/Cast_02003_const" type="Const" version="opset1">
			<data element_type="u8" offset="1112608" shape="256,128,3,3" size="294912"/>
			<output>
				<port id="1" precision="U8">
					<dim>256</dim>
					<dim>128</dim>
					<dim>3</dim>
					<dim>3</dim>
				</port>
			</output>
		</layer>
		<layer id="187" name="Conv_39/fq_weights_1/Convert_to_float" type="Convert" version="opset1">
			<data destination_type="f16"/>
			<input>
				<port id="0">
					<dim>256</dim>
					<dim>128</dim>
					<dim>3</dim>
					<dim>3</dim>
				</port>
			</input>
			<output>
				<port id="1" precision="FP16">
					<dim>256</dim>
					<dim>128</dim>
					<dim>3</dim>
					<dim>3</dim>
				</port>
			</output>
		</layer>
		<layer id="188" name="Conv_39/fq_weights_1/Copy/out_low1732_const" type="Const" version="opset1">
			<data element_type="f16" offset="36868" shape="1" size="2"/>
			<output>
				<port id="1" precision="FP16">
					<dim>1</dim>
				</port>
			</output>
		</layer>
		<layer id="189" name="Conv_39/fq_weights_1/Copy/out_high1733_const" type="Const" version="opset1">
			<data element_type="f16" offset="36870" shape="1" size="2"/>
			<output>
				<port id="1" precision="FP16">
					<dim>1</dim>
				</port>
			</output>
		</layer>
		<layer id="190" name="488492_const" type="Const" version="opset1">
			<data element_type="f16" offset="1407520" shape="256,1,1,1" size="512"/>
			<output>
				<port id="1" precision="FP16">
					<dim>256</dim>
					<dim>1</dim>
					<dim>1</dim>
					<dim>1</dim>
				</port>
			</output>
		</layer>
		<layer id="191" name="489493_const" type="Const" version="opset1">
			<data element_type="f16" offset="1408032" shape="256,1,1,1" size="512"/>
			<output>
				<port id="1" precision="FP16">
					<dim>256</dim>
					<dim>1</dim>
					<dim>1</dim>
					<dim>1</dim>
				</port>
			</output>
		</layer>
		<layer id="192" name="Conv_39/fq_weights_1" type="FakeQuantize" version="opset1">
			<data levels="255"/>
			<input>
				<port id="0">
					<dim>256</dim>
					<dim>128</dim>
					<dim>3</dim>
					<dim>3</dim>
				</port>
				<port id="1">
					<dim>1</dim>
				</port>
				<port id="2">
					<dim>1</dim>
				</port>
				<port id="3">
					<dim>256</dim>
					<dim>1</dim>
					<dim>1</dim>
					<dim>1</dim>
				</port>
				<port id="4">
					<dim>256</dim>
					<dim>1</dim>
					<dim>1</dim>
					<dim>1</dim>
				</port>
			</input>
			<output>
				<port id="5" precision="FP16">
					<dim>256</dim>
					<dim>128</dim>
					<dim>3</dim>
					<dim>3</dim>
				</port>
			</output>
		</layer>
		<layer id="193" name="Conv_39" type="Convolution" version="opset1">
			<data dilations="1,1" output_padding="0,0" pads_begin="1,1" pads_end="1,1" strides="2,2"/>
			<input>
				<port id="0">
					<dim>1</dim>
					<dim>128</dim>
					<dim>124</dim>
					<dim>108</dim>
				</port>
				<port id="1">
					<dim>256</dim>
					<dim>128</dim>
					<dim>3</dim>
					<dim>3</dim>
				</port>
			</input>
			<output>
				<port id="2" precision="FP16">
					<dim>1</dim>
					<dim>256</dim>
					<dim>62</dim>
					<dim>54</dim>
				</port>
			</output>
		</layer>
		<layer id="194" name="data_add_350335083623/EltwiseUnsqueeze3739_const182_const" type="Const" version="opset1">
			<data element_type="f16" offset="1408544" shape="1,256,1,1" size="512"/>
			<output>
				<port id="1" precision="FP16">
					<dim>1</dim>
					<dim>256</dim>
					<dim>1</dim>
					<dim>1</dim>
				</port>
			</output>
		</layer>
		<layer id="195" name="BatchNormalization_40/variance/Fused_Add_" type="Add" version="opset1">
			<input>
				<port id="0">
					<dim>1</dim>
					<dim>256</dim>
					<dim>62</dim>
					<dim>54</dim>
				</port>
				<port id="1">
					<dim>1</dim>
					<dim>256</dim>
					<dim>1</dim>
					<dim>1</dim>
				</port>
			</input>
			<output>
				<port id="2" precision="FP16">
					<dim>1</dim>
					<dim>256</dim>
					<dim>62</dim>
					<dim>54</dim>
				</port>
			</output>
		</layer>
		<layer id="196" name="Relu_41" type="ReLU" version="opset1">
			<input>
				<port id="0">
					<dim>1</dim>
					<dim>256</dim>
					<dim>62</dim>
					<dim>54</dim>
				</port>
			</input>
			<output>
				<port id="1" precision="FP16">
					<dim>1</dim>
					<dim>256</dim>
					<dim>62</dim>
					<dim>54</dim>
				</port>
			</output>
		</layer>
		<layer id="197" name="616620_const" type="Const" version="opset1">
			<data element_type="f16" offset="36868" shape="" size="2"/>
			<output>
				<port id="1" precision="FP16"/>
			</output>
		</layer>
		<layer id="198" name="617621_const" type="Const" version="opset1">
			<data element_type="f16" offset="1409056" shape="" size="2"/>
			<output>
				<port id="1" precision="FP16"/>
			</output>
		</layer>
		<layer id="199" name="618622_const" type="Const" version="opset1">
			<data element_type="f16" offset="36868" shape="" size="2"/>
			<output>
				<port id="1" precision="FP16"/>
			</output>
		</layer>
		<layer id="200" name="619623_const" type="Const" version="opset1">
			<data element_type="f16" offset="1409056" shape="" size="2"/>
			<output>
				<port id="1" precision="FP16"/>
			</output>
		</layer>
		<layer id="201" name="Conv_42/fq_input_0" type="FakeQuantize" version="opset1">
			<data levels="256"/>
			<input>
				<port id="0">
					<dim>1</dim>
					<dim>256</dim>
					<dim>62</dim>
					<dim>54</dim>
				</port>
				<port id="1"/>
				<port id="2"/>
				<port id="3"/>
				<port id="4"/>
			</input>
			<output>
				<port id="5" precision="FP16">
					<dim>1</dim>
					<dim>256</dim>
					<dim>62</dim>
					<dim>54</dim>
				</port>
			</output>
		</layer>
		<layer id="202" name="Conv_42/fq_weights_1/Convert_to_float/Cast_02025_const" type="Const" version="opset1">
			<data element_type="u8" offset="1409058" shape="256,256,3,3" size="589824"/>
			<output>
				<port id="1" precision="U8">
					<dim>256</dim>
					<dim>256</dim>
					<dim>3</dim>
					<dim>3</dim>
				</port>
			</output>
		</layer>
		<layer id="203" name="Conv_42/fq_weights_1/Convert_to_float" type="Convert" version="opset1">
			<data destination_type="f16"/>
			<input>
				<port id="0">
					<dim>256</dim>
					<dim>256</dim>
					<dim>3</dim>
					<dim>3</dim>
				</port>
			</input>
			<output>
				<port id="1" precision="FP16">
					<dim>256</dim>
					<dim>256</dim>
					<dim>3</dim>
					<dim>3</dim>
				</port>
			</output>
		</layer>
		<layer id="204" name="Conv_42/fq_weights_1/Copy/out_low1708_const" type="Const" version="opset1">
			<data element_type="f16" offset="36868" shape="1" size="2"/>
			<output>
				<port id="1" precision="FP16">
					<dim>1</dim>
				</port>
			</output>
		</layer>
		<layer id="205" name="Conv_42/fq_weights_1/Copy/out_high1709_const" type="Const" version="opset1">
			<data element_type="f16" offset="36870" shape="1" size="2"/>
			<output>
				<port id="1" precision="FP16">
					<dim>1</dim>
				</port>
			</output>
		</layer>
		<layer id="206" name="628632_const" type="Const" version="opset1">
			<data element_type="f16" offset="1998882" shape="256,1,1,1" size="512"/>
			<output>
				<port id="1" precision="FP16">
					<dim>256</dim>
					<dim>1</dim>
					<dim>1</dim>
					<dim>1</dim>
				</port>
			</output>
		</layer>
		<layer id="207" name="629633_const" type="Const" version="opset1">
			<data element_type="f16" offset="1999394" shape="256,1,1,1" size="512"/>
			<output>
				<port id="1" precision="FP16">
					<dim>256</dim>
					<dim>1</dim>
					<dim>1</dim>
					<dim>1</dim>
				</port>
			</output>
		</layer>
		<layer id="208" name="Conv_42/fq_weights_1" type="FakeQuantize" version="opset1">
			<data levels="255"/>
			<input>
				<port id="0">
					<dim>256</dim>
					<dim>256</dim>
					<dim>3</dim>
					<dim>3</dim>
				</port>
				<port id="1">
					<dim>1</dim>
				</port>
				<port id="2">
					<dim>1</dim>
				</port>
				<port id="3">
					<dim>256</dim>
					<dim>1</dim>
					<dim>1</dim>
					<dim>1</dim>
				</port>
				<port id="4">
					<dim>256</dim>
					<dim>1</dim>
					<dim>1</dim>
					<dim>1</dim>
				</port>
			</input>
			<output>
				<port id="5" precision="FP16">
					<dim>256</dim>
					<dim>256</dim>
					<dim>3</dim>
					<dim>3</dim>
				</port>
			</output>
		</layer>
		<layer id="209" name="Conv_42" type="Convolution" version="opset1">
			<data dilations="1,1" output_padding="0,0" pads_begin="1,1" pads_end="1,1" strides="1,1"/>
			<input>
				<port id="0">
					<dim>1</dim>
					<dim>256</dim>
					<dim>62</dim>
					<dim>54</dim>
				</port>
				<port id="1">
					<dim>256</dim>
					<dim>256</dim>
					<dim>3</dim>
					<dim>3</dim>
				</port>
			</input>
			<output>
				<port id="2" precision="FP16">
					<dim>1</dim>
					<dim>256</dim>
					<dim>62</dim>
					<dim>54</dim>
				</port>
			</output>
		</layer>
		<layer id="210" name="data_add_351135163625/EltwiseUnsqueeze3747_const187_const" type="Const" version="opset1">
			<data element_type="f16" offset="1999906" shape="1,256,1,1" size="512"/>
			<output>
				<port id="1" precision="FP16">
					<dim>1</dim>
					<dim>256</dim>
					<dim>1</dim>
					<dim>1</dim>
				</port>
			</output>
		</layer>
		<layer id="211" name="BatchNormalization_43/variance/Fused_Add_" type="Add" version="opset1">
			<input>
				<port id="0">
					<dim>1</dim>
					<dim>256</dim>
					<dim>62</dim>
					<dim>54</dim>
				</port>
				<port id="1">
					<dim>1</dim>
					<dim>256</dim>
					<dim>1</dim>
					<dim>1</dim>
				</port>
			</input>
			<output>
				<port id="2" precision="FP16">
					<dim>1</dim>
					<dim>256</dim>
					<dim>62</dim>
					<dim>54</dim>
				</port>
			</output>
		</layer>
		<layer id="212" name="Relu_44" type="ReLU" version="opset1">
			<input>
				<port id="0">
					<dim>1</dim>
					<dim>256</dim>
					<dim>62</dim>
					<dim>54</dim>
				</port>
			</input>
			<output>
				<port id="1" precision="FP16">
					<dim>1</dim>
					<dim>256</dim>
					<dim>62</dim>
					<dim>54</dim>
				</port>
			</output>
		</layer>
		<layer id="213" name="696700_const" type="Const" version="opset1">
			<data element_type="f16" offset="36868" shape="" size="2"/>
			<output>
				<port id="1" precision="FP16"/>
			</output>
		</layer>
		<layer id="214" name="697701_const" type="Const" version="opset1">
			<data element_type="f16" offset="2000418" shape="" size="2"/>
			<output>
				<port id="1" precision="FP16"/>
			</output>
		</layer>
		<layer id="215" name="698702_const" type="Const" version="opset1">
			<data element_type="f16" offset="36868" shape="" size="2"/>
			<output>
				<port id="1" precision="FP16"/>
			</output>
		</layer>
		<layer id="216" name="699703_const" type="Const" version="opset1">
			<data element_type="f16" offset="2000418" shape="" size="2"/>
			<output>
				<port id="1" precision="FP16"/>
			</output>
		</layer>
		<layer id="217" name="Conv_45/fq_input_0" type="FakeQuantize" version="opset1">
			<data levels="256"/>
			<input>
				<port id="0">
					<dim>1</dim>
					<dim>256</dim>
					<dim>62</dim>
					<dim>54</dim>
				</port>
				<port id="1"/>
				<port id="2"/>
				<port id="3"/>
				<port id="4"/>
			</input>
			<output>
				<port id="5" precision="FP16">
					<dim>1</dim>
					<dim>256</dim>
					<dim>62</dim>
					<dim>54</dim>
				</port>
			</output>
		</layer>
		<layer id="218" name="Conv_45/fq_weights_1/Convert_to_float/Cast_02015_const" type="Const" version="opset1">
			<data element_type="u8" offset="2000420" shape="256,256,3,3" size="589824"/>
			<output>
				<port id="1" precision="U8">
					<dim>256</dim>
					<dim>256</dim>
					<dim>3</dim>
					<dim>3</dim>
				</port>
			</output>
		</layer>
		<layer id="219" name="Conv_45/fq_weights_1/Convert_to_float" type="Convert" version="opset1">
			<data destination_type="f16"/>
			<input>
				<port id="0">
					<dim>256</dim>
					<dim>256</dim>
					<dim>3</dim>
					<dim>3</dim>
				</port>
			</input>
			<output>
				<port id="1" precision="FP16">
					<dim>256</dim>
					<dim>256</dim>
					<dim>3</dim>
					<dim>3</dim>
				</port>
			</output>
		</layer>
		<layer id="220" name="Conv_45/fq_weights_1/Copy/out_low1660_const" type="Const" version="opset1">
			<data element_type="f16" offset="36868" shape="1" size="2"/>
			<output>
				<port id="1" precision="FP16">
					<dim>1</dim>
				</port>
			</output>
		</layer>
		<layer id="221" name="Conv_45/fq_weights_1/Copy/out_high1661_const" type="Const" version="opset1">
			<data element_type="f16" offset="36870" shape="1" size="2"/>
			<output>
				<port id="1" precision="FP16">
					<dim>1</dim>
				</port>
			</output>
		</layer>
		<layer id="222" name="708712_const" type="Const" version="opset1">
			<data element_type="f16" offset="2590244" shape="256,1,1,1" size="512"/>
			<output>
				<port id="1" precision="FP16">
					<dim>256</dim>
					<dim>1</dim>
					<dim>1</dim>
					<dim>1</dim>
				</port>
			</output>
		</layer>
		<layer id="223" name="709713_const" type="Const" version="opset1">
			<data element_type="f16" offset="2590756" shape="256,1,1,1" size="512"/>
			<output>
				<port id="1" precision="FP16">
					<dim>256</dim>
					<dim>1</dim>
					<dim>1</dim>
					<dim>1</dim>
				</port>
			</output>
		</layer>
		<layer id="224" name="Conv_45/fq_weights_1" type="FakeQuantize" version="opset1">
			<data levels="255"/>
			<input>
				<port id="0">
					<dim>256</dim>
					<dim>256</dim>
					<dim>3</dim>
					<dim>3</dim>
				</port>
				<port id="1">
					<dim>1</dim>
				</port>
				<port id="2">
					<dim>1</dim>
				</port>
				<port id="3">
					<dim>256</dim>
					<dim>1</dim>
					<dim>1</dim>
					<dim>1</dim>
				</port>
				<port id="4">
					<dim>256</dim>
					<dim>1</dim>
					<dim>1</dim>
					<dim>1</dim>
				</port>
			</input>
			<output>
				<port id="5" precision="FP16">
					<dim>256</dim>
					<dim>256</dim>
					<dim>3</dim>
					<dim>3</dim>
				</port>
			</output>
		</layer>
		<layer id="225" name="Conv_45" type="Convolution" version="opset1">
			<data dilations="1,1" output_padding="0,0" pads_begin="1,1" pads_end="1,1" strides="1,1"/>
			<input>
				<port id="0">
					<dim>1</dim>
					<dim>256</dim>
					<dim>62</dim>
					<dim>54</dim>
				</port>
				<port id="1">
					<dim>256</dim>
					<dim>256</dim>
					<dim>3</dim>
					<dim>3</dim>
				</port>
			</input>
			<output>
				<port id="2" precision="FP16">
					<dim>1</dim>
					<dim>256</dim>
					<dim>62</dim>
					<dim>54</dim>
				</port>
			</output>
		</layer>
		<layer id="226" name="data_add_351935243627/EltwiseUnsqueeze3755_const192_const" type="Const" version="opset1">
			<data element_type="f16" offset="2591268" shape="1,256,1,1" size="512"/>
			<output>
				<port id="1" precision="FP16">
					<dim>1</dim>
					<dim>256</dim>
					<dim>1</dim>
					<dim>1</dim>
				</port>
			</output>
		</layer>
		<layer id="227" name="BatchNormalization_46/variance/Fused_Add_" type="Add" version="opset1">
			<input>
				<port id="0">
					<dim>1</dim>
					<dim>256</dim>
					<dim>62</dim>
					<dim>54</dim>
				</port>
				<port id="1">
					<dim>1</dim>
					<dim>256</dim>
					<dim>1</dim>
					<dim>1</dim>
				</port>
			</input>
			<output>
				<port id="2" precision="FP16">
					<dim>1</dim>
					<dim>256</dim>
					<dim>62</dim>
					<dim>54</dim>
				</port>
			</output>
		</layer>
		<layer id="228" name="Relu_47" type="ReLU" version="opset1">
			<input>
				<port id="0">
					<dim>1</dim>
					<dim>256</dim>
					<dim>62</dim>
					<dim>54</dim>
				</port>
			</input>
			<output>
				<port id="1" precision="FP16">
					<dim>1</dim>
					<dim>256</dim>
					<dim>62</dim>
					<dim>54</dim>
				</port>
			</output>
		</layer>
		<layer id="229" name="496500_const" type="Const" version="opset1">
			<data element_type="f16" offset="36868" shape="" size="2"/>
			<output>
				<port id="1" precision="FP16"/>
			</output>
		</layer>
		<layer id="230" name="497501_const" type="Const" version="opset1">
			<data element_type="f16" offset="2591780" shape="" size="2"/>
			<output>
				<port id="1" precision="FP16"/>
			</output>
		</layer>
		<layer id="231" name="498502_const" type="Const" version="opset1">
			<data element_type="f16" offset="36868" shape="" size="2"/>
			<output>
				<port id="1" precision="FP16"/>
			</output>
		</layer>
		<layer id="232" name="499503_const" type="Const" version="opset1">
			<data element_type="f16" offset="2591780" shape="" size="2"/>
			<output>
				<port id="1" precision="FP16"/>
			</output>
		</layer>
		<layer id="233" name="Conv_48/fq_input_0" type="FakeQuantize" version="opset1">
			<data levels="256"/>
			<input>
				<port id="0">
					<dim>1</dim>
					<dim>256</dim>
					<dim>62</dim>
					<dim>54</dim>
				</port>
				<port id="1"/>
				<port id="2"/>
				<port id="3"/>
				<port id="4"/>
			</input>
			<output>
				<port id="5" precision="FP16">
					<dim>1</dim>
					<dim>256</dim>
					<dim>62</dim>
					<dim>54</dim>
				</port>
			</output>
		</layer>
		<layer id="234" name="Conv_48/fq_weights_1/Convert_to_float/Cast_02017_const" type="Const" version="opset1">
			<data element_type="u8" offset="2591782" shape="256,256,3,3" size="589824"/>
			<output>
				<port id="1" precision="U8">
					<dim>256</dim>
					<dim>256</dim>
					<dim>3</dim>
					<dim>3</dim>
				</port>
			</output>
		</layer>
		<layer id="235" name="Conv_48/fq_weights_1/Convert_to_float" type="Convert" version="opset1">
			<data destination_type="f16"/>
			<input>
				<port id="0">
					<dim>256</dim>
					<dim>256</dim>
					<dim>3</dim>
					<dim>3</dim>
				</port>
			</input>
			<output>
				<port id="1" precision="FP16">
					<dim>256</dim>
					<dim>256</dim>
					<dim>3</dim>
					<dim>3</dim>
				</port>
			</output>
		</layer>
		<layer id="236" name="Conv_48/fq_weights_1/Copy/out_low1780_const" type="Const" version="opset1">
			<data element_type="f16" offset="36868" shape="1" size="2"/>
			<output>
				<port id="1" precision="FP16">
					<dim>1</dim>
				</port>
			</output>
		</layer>
		<layer id="237" name="Conv_48/fq_weights_1/Copy/out_high1781_const" type="Const" version="opset1">
			<data element_type="f16" offset="36870" shape="1" size="2"/>
			<output>
				<port id="1" precision="FP16">
					<dim>1</dim>
				</port>
			</output>
		</layer>
		<layer id="238" name="508512_const" type="Const" version="opset1">
			<data element_type="f16" offset="3181606" shape="256,1,1,1" size="512"/>
			<output>
				<port id="1" precision="FP16">
					<dim>256</dim>
					<dim>1</dim>
					<dim>1</dim>
					<dim>1</dim>
				</port>
			</output>
		</layer>
		<layer id="239" name="509513_const" type="Const" version="opset1">
			<data element_type="f16" offset="3182118" shape="256,1,1,1" size="512"/>
			<output>
				<port id="1" precision="FP16">
					<dim>256</dim>
					<dim>1</dim>
					<dim>1</dim>
					<dim>1</dim>
				</port>
			</output>
		</layer>
		<layer id="240" name="Conv_48/fq_weights_1" type="FakeQuantize" version="opset1">
			<data levels="255"/>
			<input>
				<port id="0">
					<dim>256</dim>
					<dim>256</dim>
					<dim>3</dim>
					<dim>3</dim>
				</port>
				<port id="1">
					<dim>1</dim>
				</port>
				<port id="2">
					<dim>1</dim>
				</port>
				<port id="3">
					<dim>256</dim>
					<dim>1</dim>
					<dim>1</dim>
					<dim>1</dim>
				</port>
				<port id="4">
					<dim>256</dim>
					<dim>1</dim>
					<dim>1</dim>
					<dim>1</dim>
				</port>
			</input>
			<output>
				<port id="5" precision="FP16">
					<dim>256</dim>
					<dim>256</dim>
					<dim>3</dim>
					<dim>3</dim>
				</port>
			</output>
		</layer>
		<layer id="241" name="Conv_48" type="Convolution" version="opset1">
			<data dilations="1,1" output_padding="0,0" pads_begin="1,1" pads_end="1,1" strides="1,1"/>
			<input>
				<port id="0">
					<dim>1</dim>
					<dim>256</dim>
					<dim>62</dim>
					<dim>54</dim>
				</port>
				<port id="1">
					<dim>256</dim>
					<dim>256</dim>
					<dim>3</dim>
					<dim>3</dim>
				</port>
			</input>
			<output>
				<port id="2" precision="FP16">
					<dim>1</dim>
					<dim>256</dim>
					<dim>62</dim>
					<dim>54</dim>
				</port>
			</output>
		</layer>
		<layer id="242" name="data_add_352735323629/EltwiseUnsqueeze3763_const197_const" type="Const" version="opset1">
			<data element_type="f16" offset="3182630" shape="1,256,1,1" size="512"/>
			<output>
				<port id="1" precision="FP16">
					<dim>1</dim>
					<dim>256</dim>
					<dim>1</dim>
					<dim>1</dim>
				</port>
			</output>
		</layer>
		<layer id="243" name="BatchNormalization_49/variance/Fused_Add_" type="Add" version="opset1">
			<input>
				<port id="0">
					<dim>1</dim>
					<dim>256</dim>
					<dim>62</dim>
					<dim>54</dim>
				</port>
				<port id="1">
					<dim>1</dim>
					<dim>256</dim>
					<dim>1</dim>
					<dim>1</dim>
				</port>
			</input>
			<output>
				<port id="2" precision="FP16">
					<dim>1</dim>
					<dim>256</dim>
					<dim>62</dim>
					<dim>54</dim>
				</port>
			</output>
		</layer>
		<layer id="244" name="Relu_50" type="ReLU" version="opset1">
			<input>
				<port id="0">
					<dim>1</dim>
					<dim>256</dim>
					<dim>62</dim>
					<dim>54</dim>
				</port>
			</input>
			<output>
				<port id="1" precision="FP16">
					<dim>1</dim>
					<dim>256</dim>
					<dim>62</dim>
					<dim>54</dim>
				</port>
			</output>
		</layer>
		<layer id="245" name="576580_const" type="Const" version="opset1">
			<data element_type="f16" offset="36868" shape="" size="2"/>
			<output>
				<port id="1" precision="FP16"/>
			</output>
		</layer>
		<layer id="246" name="577581_const" type="Const" version="opset1">
			<data element_type="f16" offset="3183142" shape="" size="2"/>
			<output>
				<port id="1" precision="FP16"/>
			</output>
		</layer>
		<layer id="247" name="578582_const" type="Const" version="opset1">
			<data element_type="f16" offset="36868" shape="" size="2"/>
			<output>
				<port id="1" precision="FP16"/>
			</output>
		</layer>
		<layer id="248" name="579583_const" type="Const" version="opset1">
			<data element_type="f16" offset="3183142" shape="" size="2"/>
			<output>
				<port id="1" precision="FP16"/>
			</output>
		</layer>
		<layer id="249" name="Conv_51/fq_input_0" type="FakeQuantize" version="opset1">
			<data levels="256"/>
			<input>
				<port id="0">
					<dim>1</dim>
					<dim>256</dim>
					<dim>62</dim>
					<dim>54</dim>
				</port>
				<port id="1"/>
				<port id="2"/>
				<port id="3"/>
				<port id="4"/>
			</input>
			<output>
				<port id="5" precision="FP16">
					<dim>1</dim>
					<dim>256</dim>
					<dim>62</dim>
					<dim>54</dim>
				</port>
			</output>
		</layer>
		<layer id="250" name="Conv_51/fq_weights_1/Convert_to_float/Cast_02033_const" type="Const" version="opset1">
			<data element_type="u8" offset="3183144" shape="256,256,3,3" size="589824"/>
			<output>
				<port id="1" precision="U8">
					<dim>256</dim>
					<dim>256</dim>
					<dim>3</dim>
					<dim>3</dim>
				</port>
			</output>
		</layer>
		<layer id="251" name="Conv_51/fq_weights_1/Convert_to_float" type="Convert" version="opset1">
			<data destination_type="f16"/>
			<input>
				<port id="0">
					<dim>256</dim>
					<dim>256</dim>
					<dim>3</dim>
					<dim>3</dim>
				</port>
			</input>
			<output>
				<port id="1" precision="FP16">
					<dim>256</dim>
					<dim>256</dim>
					<dim>3</dim>
					<dim>3</dim>
				</port>
			</output>
		</layer>
		<layer id="252" name="Conv_51/fq_weights_1/Copy/out_low1788_const" type="Const" version="opset1">
			<data element_type="f16" offset="36868" shape="1" size="2"/>
			<output>
				<port id="1" precision="FP16">
					<dim>1</dim>
				</port>
			</output>
		</layer>
		<layer id="253" name="Conv_51/fq_weights_1/Copy/out_high1789_const" type="Const" version="opset1">
			<data element_type="f16" offset="36870" shape="1" size="2"/>
			<output>
				<port id="1" precision="FP16">
					<dim>1</dim>
				</port>
			</output>
		</layer>
		<layer id="254" name="588592_const" type="Const" version="opset1">
			<data element_type="f16" offset="3772968" shape="256,1,1,1" size="512"/>
			<output>
				<port id="1" precision="FP16">
					<dim>256</dim>
					<dim>1</dim>
					<dim>1</dim>
					<dim>1</dim>
				</port>
			</output>
		</layer>
		<layer id="255" name="589593_const" type="Const" version="opset1">
			<data element_type="f16" offset="3773480" shape="256,1,1,1" size="512"/>
			<output>
				<port id="1" precision="FP16">
					<dim>256</dim>
					<dim>1</dim>
					<dim>1</dim>
					<dim>1</dim>
				</port>
			</output>
		</layer>
		<layer id="256" name="Conv_51/fq_weights_1" type="FakeQuantize" version="opset1">
			<data levels="255"/>
			<input>
				<port id="0">
					<dim>256</dim>
					<dim>256</dim>
					<dim>3</dim>
					<dim>3</dim>
				</port>
				<port id="1">
					<dim>1</dim>
				</port>
				<port id="2">
					<dim>1</dim>
				</port>
				<port id="3">
					<dim>256</dim>
					<dim>1</dim>
					<dim>1</dim>
					<dim>1</dim>
				</port>
				<port id="4">
					<dim>256</dim>
					<dim>1</dim>
					<dim>1</dim>
					<dim>1</dim>
				</port>
			</input>
			<output>
				<port id="5" precision="FP16">
					<dim>256</dim>
					<dim>256</dim>
					<dim>3</dim>
					<dim>3</dim>
				</port>
			</output>
		</layer>
		<layer id="257" name="Conv_51" type="Convolution" version="opset1">
			<data dilations="1,1" output_padding="0,0" pads_begin="1,1" pads_end="1,1" strides="1,1"/>
			<input>
				<port id="0">
					<dim>1</dim>
					<dim>256</dim>
					<dim>62</dim>
					<dim>54</dim>
				</port>
				<port id="1">
					<dim>256</dim>
					<dim>256</dim>
					<dim>3</dim>
					<dim>3</dim>
				</port>
			</input>
			<output>
				<port id="2" precision="FP16">
					<dim>1</dim>
					<dim>256</dim>
					<dim>62</dim>
					<dim>54</dim>
				</port>
			</output>
		</layer>
		<layer id="258" name="data_add_353535403631/EltwiseUnsqueeze3771_const202_const" type="Const" version="opset1">
			<data element_type="f16" offset="3773992" shape="1,256,1,1" size="512"/>
			<output>
				<port id="1" precision="FP16">
					<dim>1</dim>
					<dim>256</dim>
					<dim>1</dim>
					<dim>1</dim>
				</port>
			</output>
		</layer>
		<layer id="259" name="BatchNormalization_52/variance/Fused_Add_" type="Add" version="opset1">
			<input>
				<port id="0">
					<dim>1</dim>
					<dim>256</dim>
					<dim>62</dim>
					<dim>54</dim>
				</port>
				<port id="1">
					<dim>1</dim>
					<dim>256</dim>
					<dim>1</dim>
					<dim>1</dim>
				</port>
			</input>
			<output>
				<port id="2" precision="FP16">
					<dim>1</dim>
					<dim>256</dim>
					<dim>62</dim>
					<dim>54</dim>
				</port>
			</output>
		</layer>
		<layer id="260" name="Relu_53" type="ReLU" version="opset1">
			<input>
				<port id="0">
					<dim>1</dim>
					<dim>256</dim>
					<dim>62</dim>
					<dim>54</dim>
				</port>
			</input>
			<output>
				<port id="1" precision="FP16">
					<dim>1</dim>
					<dim>256</dim>
					<dim>62</dim>
					<dim>54</dim>
				</port>
			</output>
		</layer>
		<layer id="261" name="656660_const" type="Const" version="opset1">
			<data element_type="f16" offset="36868" shape="" size="2"/>
			<output>
				<port id="1" precision="FP16"/>
			</output>
		</layer>
		<layer id="262" name="657661_const" type="Const" version="opset1">
			<data element_type="f16" offset="3774504" shape="" size="2"/>
			<output>
				<port id="1" precision="FP16"/>
			</output>
		</layer>
		<layer id="263" name="658662_const" type="Const" version="opset1">
			<data element_type="f16" offset="36868" shape="" size="2"/>
			<output>
				<port id="1" precision="FP16"/>
			</output>
		</layer>
		<layer id="264" name="659663_const" type="Const" version="opset1">
			<data element_type="f16" offset="3774504" shape="" size="2"/>
			<output>
				<port id="1" precision="FP16"/>
			</output>
		</layer>
		<layer id="265" name="Conv_54/fq_input_0" type="FakeQuantize" version="opset1">
			<data levels="256"/>
			<input>
				<port id="0">
					<dim>1</dim>
					<dim>256</dim>
					<dim>62</dim>
					<dim>54</dim>
				</port>
				<port id="1"/>
				<port id="2"/>
				<port id="3"/>
				<port id="4"/>
			</input>
			<output>
				<port id="5" precision="FP16">
					<dim>1</dim>
					<dim>256</dim>
					<dim>62</dim>
					<dim>54</dim>
				</port>
			</output>
		</layer>
		<layer id="266" name="Conv_54/fq_weights_1/Convert_to_float/Cast_02031_const" type="Const" version="opset1">
			<data element_type="u8" offset="3774506" shape="256,256,3,3" size="589824"/>
			<output>
				<port id="1" precision="U8">
					<dim>256</dim>
					<dim>256</dim>
					<dim>3</dim>
					<dim>3</dim>
				</port>
			</output>
		</layer>
		<layer id="267" name="Conv_54/fq_weights_1/Convert_to_float" type="Convert" version="opset1">
			<data destination_type="f16"/>
			<input>
				<port id="0">
					<dim>256</dim>
					<dim>256</dim>
					<dim>3</dim>
					<dim>3</dim>
				</port>
			</input>
			<output>
				<port id="1" precision="FP16">
					<dim>256</dim>
					<dim>256</dim>
					<dim>3</dim>
					<dim>3</dim>
				</port>
			</output>
		</layer>
		<layer id="268" name="Conv_54/fq_weights_1/Copy/out_low1740_const" type="Const" version="opset1">
			<data element_type="f16" offset="36868" shape="1" size="2"/>
			<output>
				<port id="1" precision="FP16">
					<dim>1</dim>
				</port>
			</output>
		</layer>
		<layer id="269" name="Conv_54/fq_weights_1/Copy/out_high1741_const" type="Const" version="opset1">
			<data element_type="f16" offset="36870" shape="1" size="2"/>
			<output>
				<port id="1" precision="FP16">
					<dim>1</dim>
				</port>
			</output>
		</layer>
		<layer id="270" name="668672_const" type="Const" version="opset1">
			<data element_type="f16" offset="4364330" shape="256,1,1,1" size="512"/>
			<output>
				<port id="1" precision="FP16">
					<dim>256</dim>
					<dim>1</dim>
					<dim>1</dim>
					<dim>1</dim>
				</port>
			</output>
		</layer>
		<layer id="271" name="669673_const" type="Const" version="opset1">
			<data element_type="f16" offset="4364842" shape="256,1,1,1" size="512"/>
			<output>
				<port id="1" precision="FP16">
					<dim>256</dim>
					<dim>1</dim>
					<dim>1</dim>
					<dim>1</dim>
				</port>
			</output>
		</layer>
		<layer id="272" name="Conv_54/fq_weights_1" type="FakeQuantize" version="opset1">
			<data levels="255"/>
			<input>
				<port id="0">
					<dim>256</dim>
					<dim>256</dim>
					<dim>3</dim>
					<dim>3</dim>
				</port>
				<port id="1">
					<dim>1</dim>
				</port>
				<port id="2">
					<dim>1</dim>
				</port>
				<port id="3">
					<dim>256</dim>
					<dim>1</dim>
					<dim>1</dim>
					<dim>1</dim>
				</port>
				<port id="4">
					<dim>256</dim>
					<dim>1</dim>
					<dim>1</dim>
					<dim>1</dim>
				</port>
			</input>
			<output>
				<port id="5" precision="FP16">
					<dim>256</dim>
					<dim>256</dim>
					<dim>3</dim>
					<dim>3</dim>
				</port>
			</output>
		</layer>
		<layer id="273" name="Conv_54" type="Convolution" version="opset1">
			<data dilations="1,1" output_padding="0,0" pads_begin="1,1" pads_end="1,1" strides="1,1"/>
			<input>
				<port id="0">
					<dim>1</dim>
					<dim>256</dim>
					<dim>62</dim>
					<dim>54</dim>
				</port>
				<port id="1">
					<dim>256</dim>
					<dim>256</dim>
					<dim>3</dim>
					<dim>3</dim>
				</port>
			</input>
			<output>
				<port id="2" precision="FP16">
					<dim>1</dim>
					<dim>256</dim>
					<dim>62</dim>
					<dim>54</dim>
				</port>
			</output>
		</layer>
		<layer id="274" name="data_add_354335483633/EltwiseUnsqueeze3779_const207_const" type="Const" version="opset1">
			<data element_type="f16" offset="4365354" shape="1,256,1,1" size="512"/>
			<output>
				<port id="1" precision="FP16">
					<dim>1</dim>
					<dim>256</dim>
					<dim>1</dim>
					<dim>1</dim>
				</port>
			</output>
		</layer>
		<layer id="275" name="BatchNormalization_55/variance/Fused_Add_" type="Add" version="opset1">
			<input>
				<port id="0">
					<dim>1</dim>
					<dim>256</dim>
					<dim>62</dim>
					<dim>54</dim>
				</port>
				<port id="1">
					<dim>1</dim>
					<dim>256</dim>
					<dim>1</dim>
					<dim>1</dim>
				</port>
			</input>
			<output>
				<port id="2" precision="FP16">
					<dim>1</dim>
					<dim>256</dim>
					<dim>62</dim>
					<dim>54</dim>
				</port>
			</output>
		</layer>
		<layer id="276" name="Relu_56" type="ReLU" version="opset1">
			<input>
				<port id="0">
					<dim>1</dim>
					<dim>256</dim>
					<dim>62</dim>
					<dim>54</dim>
				</port>
			</input>
			<output>
				<port id="1" precision="FP16">
					<dim>1</dim>
					<dim>256</dim>
					<dim>62</dim>
					<dim>54</dim>
				</port>
			</output>
		</layer>
		<layer id="277" name="BatchNormalization_58/mean/Fused_Mul_39353937_const210_const" type="Const" version="opset1">
			<data element_type="f16" offset="4365866" shape="256,128,4,4" size="1048576"/>
			<output>
				<port id="1" precision="FP16">
					<dim>256</dim>
					<dim>128</dim>
					<dim>4</dim>
					<dim>4</dim>
				</port>
			</output>
		</layer>
		<layer id="278" name="ConvTranspose_57" type="ConvolutionBackpropData" version="opset1">
			<data dilations="1,1" output_padding="0,0" pads_begin="0,0" pads_end="0,0" strides="4,4"/>
			<input>
				<port id="0">
					<dim>1</dim>
					<dim>256</dim>
					<dim>62</dim>
					<dim>54</dim>
				</port>
				<port id="1">
					<dim>256</dim>
					<dim>128</dim>
					<dim>4</dim>
					<dim>4</dim>
				</port>
			</input>
			<output>
				<port id="2" precision="FP16">
					<dim>1</dim>
					<dim>128</dim>
					<dim>248</dim>
					<dim>216</dim>
				</port>
			</output>
		</layer>
		<layer id="279" name="data_add_355135563635/EltwiseUnsqueeze3787_const212_const" type="Const" version="opset1">
			<data element_type="f16" offset="5414442" shape="1,128,1,1" size="256"/>
			<output>
				<port id="1" precision="FP16">
					<dim>1</dim>
					<dim>128</dim>
					<dim>1</dim>
					<dim>1</dim>
				</port>
			</output>
		</layer>
		<layer id="280" name="BatchNormalization_58/variance/Fused_Add_" type="Add" version="opset1">
			<input>
				<port id="0">
					<dim>1</dim>
					<dim>128</dim>
					<dim>248</dim>
					<dim>216</dim>
				</port>
				<port id="1">
					<dim>1</dim>
					<dim>128</dim>
					<dim>1</dim>
					<dim>1</dim>
				</port>
			</input>
			<output>
				<port id="2" precision="FP16">
					<dim>1</dim>
					<dim>128</dim>
					<dim>248</dim>
					<dim>216</dim>
				</port>
			</output>
		</layer>
		<layer id="281" name="Relu_59" type="ReLU" version="opset1">
			<input>
				<port id="0">
					<dim>1</dim>
					<dim>128</dim>
					<dim>248</dim>
					<dim>216</dim>
				</port>
			</input>
			<output>
				<port id="1" precision="FP16">
					<dim>1</dim>
					<dim>128</dim>
					<dim>248</dim>
					<dim>216</dim>
				</port>
			</output>
		</layer>
		<layer id="282" name="975979_const" type="Const" version="opset1">
			<data element_type="f16" offset="36868" shape="" size="2"/>
			<output>
				<port id="1" precision="FP16"/>
			</output>
		</layer>
		<layer id="283" name="976980_const" type="Const" version="opset1">
			<data element_type="f16" offset="5414698" shape="" size="2"/>
			<output>
				<port id="1" precision="FP16"/>
			</output>
		</layer>
		<layer id="284" name="977981_const" type="Const" version="opset1">
			<data element_type="f16" offset="36868" shape="" size="2"/>
			<output>
				<port id="1" precision="FP16"/>
			</output>
		</layer>
		<layer id="285" name="978982_const" type="Const" version="opset1">
			<data element_type="f16" offset="5414698" shape="" size="2"/>
			<output>
				<port id="1" precision="FP16"/>
			</output>
		</layer>
		<layer id="286" name="Concat_60/fq_input_2" type="FakeQuantize" version="opset1">
			<data levels="256"/>
			<input>
				<port id="0">
					<dim>1</dim>
					<dim>128</dim>
					<dim>248</dim>
					<dim>216</dim>
				</port>
				<port id="1"/>
				<port id="2"/>
				<port id="3"/>
				<port id="4"/>
			</input>
			<output>
				<port id="5" precision="FP16">
					<dim>1</dim>
					<dim>128</dim>
					<dim>248</dim>
					<dim>216</dim>
				</port>
			</output>
		</layer>
		<layer id="287" name="Concat_60" type="Concat" version="opset1">
			<data axis="1"/>
			<input>
				<port id="0">
					<dim>1</dim>
					<dim>128</dim>
					<dim>248</dim>
					<dim>216</dim>
				</port>
				<port id="1">
					<dim>1</dim>
					<dim>128</dim>
					<dim>248</dim>
					<dim>216</dim>
				</port>
				<port id="2">
					<dim>1</dim>
					<dim>128</dim>
					<dim>248</dim>
					<dim>216</dim>
				</port>
			</input>
			<output>
				<port id="3" precision="FP16">
					<dim>1</dim>
					<dim>384</dim>
					<dim>248</dim>
					<dim>216</dim>
				</port>
			</output>
		</layer>
		<layer id="288" name="Conv_61/WithoutBiases/fq_weights_1/Convert_to_float/Cast_01995_const" type="Const" version="opset1">
			<data element_type="u8" offset="5414700" shape="14,384,1,1" size="5376"/>
			<output>
				<port id="1" precision="U8">
					<dim>14</dim>
					<dim>384</dim>
					<dim>1</dim>
					<dim>1</dim>
				</port>
			</output>
		</layer>
		<layer id="289" name="Conv_61/WithoutBiases/fq_weights_1/Convert_to_float" type="Convert" version="opset1">
			<data destination_type="f16"/>
			<input>
				<port id="0">
					<dim>14</dim>
					<dim>384</dim>
					<dim>1</dim>
					<dim>1</dim>
				</port>
			</input>
			<output>
				<port id="1" precision="FP16">
					<dim>14</dim>
					<dim>384</dim>
					<dim>1</dim>
					<dim>1</dim>
				</port>
			</output>
		</layer>
		<layer id="290" name="Conv_61/WithoutBiases/fq_weights_1/Copy/out_low1692_const" type="Const" version="opset1">
			<data element_type="f16" offset="36868" shape="1" size="2"/>
			<output>
				<port id="1" precision="FP16">
					<dim>1</dim>
				</port>
			</output>
		</layer>
		<layer id="291" name="Conv_61/WithoutBiases/fq_weights_1/Copy/out_high1693_const" type="Const" version="opset1">
			<data element_type="f16" offset="36870" shape="1" size="2"/>
			<output>
				<port id="1" precision="FP16">
					<dim>1</dim>
				</port>
			</output>
		</layer>
		<layer id="292" name="448452_const" type="Const" version="opset1">
			<data element_type="f16" offset="5420076" shape="14,1,1,1" size="28"/>
			<output>
				<port id="1" precision="FP16">
					<dim>14</dim>
					<dim>1</dim>
					<dim>1</dim>
					<dim>1</dim>
				</port>
			</output>
		</layer>
		<layer id="293" name="449453_const" type="Const" version="opset1">
			<data element_type="f16" offset="5420104" shape="14,1,1,1" size="28"/>
			<output>
				<port id="1" precision="FP16">
					<dim>14</dim>
					<dim>1</dim>
					<dim>1</dim>
					<dim>1</dim>
				</port>
			</output>
		</layer>
		<layer id="294" name="Conv_61/WithoutBiases/fq_weights_1" type="FakeQuantize" version="opset1">
			<data levels="255"/>
			<input>
				<port id="0">
					<dim>14</dim>
					<dim>384</dim>
					<dim>1</dim>
					<dim>1</dim>
				</port>
				<port id="1">
					<dim>1</dim>
				</port>
				<port id="2">
					<dim>1</dim>
				</port>
				<port id="3">
					<dim>14</dim>
					<dim>1</dim>
					<dim>1</dim>
					<dim>1</dim>
				</port>
				<port id="4">
					<dim>14</dim>
					<dim>1</dim>
					<dim>1</dim>
					<dim>1</dim>
				</port>
			</input>
			<output>
				<port id="5" precision="FP16">
					<dim>14</dim>
					<dim>384</dim>
					<dim>1</dim>
					<dim>1</dim>
				</port>
			</output>
		</layer>
		<layer id="295" name="Conv_61/WithoutBiases" type="Convolution" version="opset1">
			<data dilations="1,1" output_padding="0,0" pads_begin="0,0" pads_end="0,0" strides="1,1"/>
			<input>
				<port id="0">
					<dim>1</dim>
					<dim>384</dim>
					<dim>248</dim>
					<dim>216</dim>
				</port>
				<port id="1">
					<dim>14</dim>
					<dim>384</dim>
					<dim>1</dim>
					<dim>1</dim>
				</port>
			</input>
			<output>
				<port id="2" precision="FP16">
					<dim>1</dim>
					<dim>14</dim>
					<dim>248</dim>
					<dim>216</dim>
				</port>
			</output>
		</layer>
		<layer id="296" name="Conv_61/Dims19653599/EltwiseUnsqueeze3643_const218_const" type="Const" version="opset1">
			<data element_type="f16" offset="5420132" shape="1,14,1,1" size="28"/>
			<output>
				<port id="1" precision="FP16">
					<dim>1</dim>
					<dim>14</dim>
					<dim>1</dim>
					<dim>1</dim>
				</port>
			</output>
		</layer>
		<layer id="297" name="Conv_61" type="Add" version="opset1">
			<input>
				<port id="0">
					<dim>1</dim>
					<dim>14</dim>
					<dim>248</dim>
					<dim>216</dim>
				</port>
				<port id="1">
					<dim>1</dim>
					<dim>14</dim>
					<dim>1</dim>
					<dim>1</dim>
				</port>
			</input>
			<output>
				<port id="2" precision="FP16">
					<dim>1</dim>
					<dim>14</dim>
					<dim>248</dim>
					<dim>216</dim>
				</port>
			</output>
		</layer>
		<layer id="298" name="184/Cast_12023_const" type="Const" version="opset1">
			<data element_type="i64" offset="5420160" shape="4" size="32"/>
			<output>
				<port id="1" precision="I64">
					<dim>4</dim>
				</port>
			</output>
		</layer>
		<layer id="299" name="184" type="Transpose" version="opset1">
			<input>
				<port id="0">
					<dim>1</dim>
					<dim>14</dim>
					<dim>248</dim>
					<dim>216</dim>
				</port>
				<port id="1">
					<dim>4</dim>
				</port>
			</input>
			<output>
				<port id="2" precision="FP16">
					<dim>1</dim>
					<dim>248</dim>
					<dim>216</dim>
					<dim>14</dim>
				</port>
			</output>
		</layer>
		<layer id="300" name="184/sink_port_0" type="Result" version="opset1">
			<input>
				<port id="0">
					<dim>1</dim>
					<dim>248</dim>
					<dim>216</dim>
					<dim>14</dim>
				</port>
			</input>
		</layer>
		<layer id="301" name="Conv_62/WithoutBiases/fq_weights_1/Convert_to_float/Cast_02021_const" type="Const" version="opset1">
			<data element_type="u8" offset="5420192" shape="2,384,1,1" size="768"/>
			<output>
				<port id="1" precision="U8">
					<dim>2</dim>
					<dim>384</dim>
					<dim>1</dim>
					<dim>1</dim>
				</port>
			</output>
		</layer>
		<layer id="302" name="Conv_62/WithoutBiases/fq_weights_1/Convert_to_float" type="Convert" version="opset1">
			<data destination_type="f16"/>
			<input>
				<port id="0">
					<dim>2</dim>
					<dim>384</dim>
					<dim>1</dim>
					<dim>1</dim>
				</port>
			</input>
			<output>
				<port id="1" precision="FP16">
					<dim>2</dim>
					<dim>384</dim>
					<dim>1</dim>
					<dim>1</dim>
				</port>
			</output>
		</layer>
		<layer id="303" name="Conv_62/WithoutBiases/fq_weights_1/Copy/out_low1676_const" type="Const" version="opset1">
			<data element_type="f16" offset="36868" shape="1" size="2"/>
			<output>
				<port id="1" precision="FP16">
					<dim>1</dim>
				</port>
			</output>
		</layer>
		<layer id="304" name="Conv_62/WithoutBiases/fq_weights_1/Copy/out_high1677_const" type="Const" version="opset1">
			<data element_type="f16" offset="36870" shape="1" size="2"/>
			<output>
				<port id="1" precision="FP16">
					<dim>1</dim>
				</port>
			</output>
		</layer>
		<layer id="305" name="648652_const" type="Const" version="opset1">
			<data element_type="f16" offset="5420960" shape="2,1,1,1" size="4"/>
			<output>
				<port id="1" precision="FP16">
					<dim>2</dim>
					<dim>1</dim>
					<dim>1</dim>
					<dim>1</dim>
				</port>
			</output>
		</layer>
		<layer id="306" name="649653_const" type="Const" version="opset1">
			<data element_type="f16" offset="5420964" shape="2,1,1,1" size="4"/>
			<output>
				<port id="1" precision="FP16">
					<dim>2</dim>
					<dim>1</dim>
					<dim>1</dim>
					<dim>1</dim>
				</port>
			</output>
		</layer>
		<layer id="307" name="Conv_62/WithoutBiases/fq_weights_1" type="FakeQuantize" version="opset1">
			<data levels="255"/>
			<input>
				<port id="0">
					<dim>2</dim>
					<dim>384</dim>
					<dim>1</dim>
					<dim>1</dim>
				</port>
				<port id="1">
					<dim>1</dim>
				</port>
				<port id="2">
					<dim>1</dim>
				</port>
				<port id="3">
					<dim>2</dim>
					<dim>1</dim>
					<dim>1</dim>
					<dim>1</dim>
				</port>
				<port id="4">
					<dim>2</dim>
					<dim>1</dim>
					<dim>1</dim>
					<dim>1</dim>
				</port>
			</input>
			<output>
				<port id="5" precision="FP16">
					<dim>2</dim>
					<dim>384</dim>
					<dim>1</dim>
					<dim>1</dim>
				</port>
			</output>
		</layer>
		<layer id="308" name="Conv_62/WithoutBiases" type="Convolution" version="opset1">
			<data dilations="1,1" output_padding="0,0" pads_begin="0,0" pads_end="0,0" strides="1,1"/>
			<input>
				<port id="0">
					<dim>1</dim>
					<dim>384</dim>
					<dim>248</dim>
					<dim>216</dim>
				</port>
				<port id="1">
					<dim>2</dim>
					<dim>384</dim>
					<dim>1</dim>
					<dim>1</dim>
				</port>
			</input>
			<output>
				<port id="2" precision="FP16">
					<dim>1</dim>
					<dim>2</dim>
					<dim>248</dim>
					<dim>216</dim>
				</port>
			</output>
		</layer>
		<layer id="309" name="Conv_62/Dims19713600/EltwiseUnsqueeze3647_const224_const" type="Const" version="opset1">
			<data element_type="f16" offset="5420968" shape="1,2,1,1" size="4"/>
			<output>
				<port id="1" precision="FP16">
					<dim>1</dim>
					<dim>2</dim>
					<dim>1</dim>
					<dim>1</dim>
				</port>
			</output>
		</layer>
		<layer id="310" name="Conv_62" type="Add" version="opset1">
			<input>
				<port id="0">
					<dim>1</dim>
					<dim>2</dim>
					<dim>248</dim>
					<dim>216</dim>
				</port>
				<port id="1">
					<dim>1</dim>
					<dim>2</dim>
					<dim>1</dim>
					<dim>1</dim>
				</port>
			</input>
			<output>
				<port id="2" precision="FP16">
					<dim>1</dim>
					<dim>2</dim>
					<dim>248</dim>
					<dim>216</dim>
				</port>
			</output>
		</layer>
		<layer id="311" name="185/Cast_11999_const" type="Const" version="opset1">
			<data element_type="i64" offset="5420160" shape="4" size="32"/>
			<output>
				<port id="1" precision="I64">
					<dim>4</dim>
				</port>
			</output>
		</layer>
		<layer id="312" name="185" type="Transpose" version="opset1">
			<input>
				<port id="0">
					<dim>1</dim>
					<dim>2</dim>
					<dim>248</dim>
					<dim>216</dim>
				</port>
				<port id="1">
					<dim>4</dim>
				</port>
			</input>
			<output>
				<port id="2" precision="FP16">
					<dim>1</dim>
					<dim>248</dim>
					<dim>216</dim>
					<dim>2</dim>
				</port>
			</output>
		</layer>
		<layer id="313" name="185/sink_port_0" type="Result" version="opset1">
			<input>
				<port id="0">
					<dim>1</dim>
					<dim>248</dim>
					<dim>216</dim>
					<dim>2</dim>
				</port>
			</input>
		</layer>
		<layer id="314" name="Conv_65/WithoutBiases/fq_weights_1/Convert_to_float/Cast_02029_const" type="Const" version="opset1">
			<data element_type="u8" offset="5420972" shape="4,384,1,1" size="1536"/>
			<output>
				<port id="1" precision="U8">
					<dim>4</dim>
					<dim>384</dim>
					<dim>1</dim>
					<dim>1</dim>
				</port>
			</output>
		</layer>
		<layer id="315" name="Conv_65/WithoutBiases/fq_weights_1/Convert_to_float" type="Convert" version="opset1">
			<data destination_type="f16"/>
			<input>
				<port id="0">
					<dim>4</dim>
					<dim>384</dim>
					<dim>1</dim>
					<dim>1</dim>
				</port>
			</input>
			<output>
				<port id="1" precision="FP16">
					<dim>4</dim>
					<dim>384</dim>
					<dim>1</dim>
					<dim>1</dim>
				</port>
			</output>
		</layer>
		<layer id="316" name="Conv_65/WithoutBiases/fq_weights_1/Copy/out_low1764_const" type="Const" version="opset1">
			<data element_type="f16" offset="36868" shape="1" size="2"/>
			<output>
				<port id="1" precision="FP16">
					<dim>1</dim>
				</port>
			</output>
		</layer>
		<layer id="317" name="Conv_65/WithoutBiases/fq_weights_1/Copy/out_high1765_const" type="Const" version="opset1">
			<data element_type="f16" offset="36870" shape="1" size="2"/>
			<output>
				<port id="1" precision="FP16">
					<dim>1</dim>
				</port>
			</output>
		</layer>
		<layer id="318" name="468472_const" type="Const" version="opset1">
			<data element_type="f16" offset="5422508" shape="4,1,1,1" size="8"/>
			<output>
				<port id="1" precision="FP16">
					<dim>4</dim>
					<dim>1</dim>
					<dim>1</dim>
					<dim>1</dim>
				</port>
			</output>
		</layer>
		<layer id="319" name="469473_const" type="Const" version="opset1">
			<data element_type="f16" offset="5422516" shape="4,1,1,1" size="8"/>
			<output>
				<port id="1" precision="FP16">
					<dim>4</dim>
					<dim>1</dim>
					<dim>1</dim>
					<dim>1</dim>
				</port>
			</output>
		</layer>
		<layer id="320" name="Conv_65/WithoutBiases/fq_weights_1" type="FakeQuantize" version="opset1">
			<data levels="255"/>
			<input>
				<port id="0">
					<dim>4</dim>
					<dim>384</dim>
					<dim>1</dim>
					<dim>1</dim>
				</port>
				<port id="1">
					<dim>1</dim>
				</port>
				<port id="2">
					<dim>1</dim>
				</port>
				<port id="3">
					<dim>4</dim>
					<dim>1</dim>
					<dim>1</dim>
					<dim>1</dim>
				</port>
				<port id="4">
					<dim>4</dim>
					<dim>1</dim>
					<dim>1</dim>
					<dim>1</dim>
				</port>
			</input>
			<output>
				<port id="5" precision="FP16">
					<dim>4</dim>
					<dim>384</dim>
					<dim>1</dim>
					<dim>1</dim>
				</port>
			</output>
		</layer>
		<layer id="321" name="Conv_65/WithoutBiases" type="Convolution" version="opset1">
			<data dilations="1,1" output_padding="0,0" pads_begin="0,0" pads_end="0,0" strides="1,1"/>
			<input>
				<port id="0">
					<dim>1</dim>
					<dim>384</dim>
					<dim>248</dim>
					<dim>216</dim>
				</port>
				<port id="1">
					<dim>4</dim>
					<dim>384</dim>
					<dim>1</dim>
					<dim>1</dim>
				</port>
			</input>
			<output>
				<port id="2" precision="FP16">
					<dim>1</dim>
					<dim>4</dim>
					<dim>248</dim>
					<dim>216</dim>
				</port>
			</output>
		</layer>
		<layer id="322" name="Conv_65/Dims19773601/EltwiseUnsqueeze3651_const230_const" type="Const" version="opset1">
			<data element_type="f16" offset="5422524" shape="1,4,1,1" size="8"/>
			<output>
				<port id="1" precision="FP16">
					<dim>1</dim>
					<dim>4</dim>
					<dim>1</dim>
					<dim>1</dim>
				</port>
			</output>
		</layer>
		<layer id="323" name="Conv_65" type="Add" version="opset1">
			<input>
				<port id="0">
					<dim>1</dim>
					<dim>4</dim>
					<dim>248</dim>
					<dim>216</dim>
				</port>
				<port id="1">
					<dim>1</dim>
					<dim>4</dim>
					<dim>1</dim>
					<dim>1</dim>
				</port>
			</input>
			<output>
				<port id="2" precision="FP16">
					<dim>1</dim>
					<dim>4</dim>
					<dim>248</dim>
					<dim>216</dim>
				</port>
			</output>
		</layer>
		<layer id="324" name="187/Cast_12035_const" type="Const" version="opset1">
			<data element_type="i64" offset="5420160" shape="4" size="32"/>
			<output>
				<port id="1" precision="I64">
					<dim>4</dim>
				</port>
			</output>
		</layer>
		<layer id="325" name="187" type="Transpose" version="opset1">
			<input>
				<port id="0">
					<dim>1</dim>
					<dim>4</dim>
					<dim>248</dim>
					<dim>216</dim>
				</port>
				<port id="1">
					<dim>4</dim>
				</port>
			</input>
			<output>
				<port id="2" precision="FP16">
					<dim>1</dim>
					<dim>248</dim>
					<dim>216</dim>
					<dim>4</dim>
				</port>
			</output>
		</layer>
		<layer id="326" name="187/sink_port_0" type="Result" version="opset1">
			<input>
				<port id="0">
					<dim>1</dim>
					<dim>248</dim>
					<dim>216</dim>
					<dim>4</dim>
				</port>
			</input>
		</layer>
	</layers>
	<edges>
		<edge from-layer="0" from-port="0" to-layer="5" to-port="0"/>
		<edge from-layer="1" from-port="1" to-layer="5" to-port="1"/>
		<edge from-layer="2" from-port="1" to-layer="5" to-port="2"/>
		<edge from-layer="3" from-port="1" to-layer="5" to-port="3"/>
		<edge from-layer="4" from-port="1" to-layer="5" to-port="4"/>
		<edge from-layer="6" from-port="1" to-layer="7" to-port="0"/>
		<edge from-layer="7" from-port="1" to-layer="12" to-port="0"/>
		<edge from-layer="8" from-port="1" to-layer="12" to-port="1"/>
		<edge from-layer="9" from-port="1" to-layer="12" to-port="2"/>
		<edge from-layer="10" from-port="1" to-layer="12" to-port="3"/>
		<edge from-layer="11" from-port="1" to-layer="12" to-port="4"/>
		<edge from-layer="5" from-port="5" to-layer="13" to-port="0"/>
		<edge from-layer="12" from-port="5" to-layer="13" to-port="1"/>
		<edge from-layer="13" from-port="2" to-layer="15" to-port="0"/>
		<edge from-layer="14" from-port="1" to-layer="15" to-port="1"/>
		<edge from-layer="15" from-port="2" to-layer="16" to-port="0"/>
		<edge from-layer="16" from-port="1" to-layer="21" to-port="0"/>
		<edge from-layer="17" from-port="1" to-layer="21" to-port="1"/>
		<edge from-layer="18" from-port="1" to-layer="21" to-port="2"/>
		<edge from-layer="19" from-port="1" to-layer="21" to-port="3"/>
		<edge from-layer="20" from-port="1" to-layer="21" to-port="4"/>
		<edge from-layer="22" from-port="1" to-layer="23" to-port="0"/>
		<edge from-layer="23" from-port="1" to-layer="28" to-port="0"/>
		<edge from-layer="24" from-port="1" to-layer="28" to-port="1"/>
		<edge from-layer="25" from-port="1" to-layer="28" to-port="2"/>
		<edge from-layer="26" from-port="1" to-layer="28" to-port="3"/>
		<edge from-layer="27" from-port="1" to-layer="28" to-port="4"/>
		<edge from-layer="21" from-port="5" to-layer="29" to-port="0"/>
		<edge from-layer="28" from-port="5" to-layer="29" to-port="1"/>
		<edge from-layer="29" from-port="2" to-layer="31" to-port="0"/>
		<edge from-layer="30" from-port="1" to-layer="31" to-port="1"/>
		<edge from-layer="31" from-port="2" to-layer="32" to-port="0"/>
		<edge from-layer="32" from-port="1" to-layer="37" to-port="0"/>
		<edge from-layer="33" from-port="1" to-layer="37" to-port="1"/>
		<edge from-layer="34" from-port="1" to-layer="37" to-port="2"/>
		<edge from-layer="35" from-port="1" to-layer="37" to-port="3"/>
		<edge from-layer="36" from-port="1" to-layer="37" to-port="4"/>
		<edge from-layer="38" from-port="1" to-layer="39" to-port="0"/>
		<edge from-layer="39" from-port="1" to-layer="44" to-port="0"/>
		<edge from-layer="40" from-port="1" to-layer="44" to-port="1"/>
		<edge from-layer="41" from-port="1" to-layer="44" to-port="2"/>
		<edge from-layer="42" from-port="1" to-layer="44" to-port="3"/>
		<edge from-layer="43" from-port="1" to-layer="44" to-port="4"/>
		<edge from-layer="37" from-port="5" to-layer="45" to-port="0"/>
		<edge from-layer="44" from-port="5" to-layer="45" to-port="1"/>
		<edge from-layer="45" from-port="2" to-layer="47" to-port="0"/>
		<edge from-layer="46" from-port="1" to-layer="47" to-port="1"/>
		<edge from-layer="47" from-port="2" to-layer="48" to-port="0"/>
		<edge from-layer="48" from-port="1" to-layer="53" to-port="0"/>
		<edge from-layer="49" from-port="1" to-layer="53" to-port="1"/>
		<edge from-layer="50" from-port="1" to-layer="53" to-port="2"/>
		<edge from-layer="51" from-port="1" to-layer="53" to-port="3"/>
		<edge from-layer="52" from-port="1" to-layer="53" to-port="4"/>
		<edge from-layer="54" from-port="1" to-layer="55" to-port="0"/>
		<edge from-layer="55" from-port="1" to-layer="60" to-port="0"/>
		<edge from-layer="56" from-port="1" to-layer="60" to-port="1"/>
		<edge from-layer="57" from-port="1" to-layer="60" to-port="2"/>
		<edge from-layer="58" from-port="1" to-layer="60" to-port="3"/>
		<edge from-layer="59" from-port="1" to-layer="60" to-port="4"/>
		<edge from-layer="53" from-port="5" to-layer="61" to-port="0"/>
		<edge from-layer="60" from-port="5" to-layer="61" to-port="1"/>
		<edge from-layer="61" from-port="2" to-layer="63" to-port="0"/>
		<edge from-layer="62" from-port="1" to-layer="63" to-port="1"/>
		<edge from-layer="63" from-port="2" to-layer="64" to-port="0"/>
		<edge from-layer="64" from-port="1" to-layer="66" to-port="0"/>
		<edge from-layer="65" from-port="1" to-layer="66" to-port="1"/>
		<edge from-layer="66" from-port="2" to-layer="68" to-port="0"/>
		<edge from-layer="67" from-port="1" to-layer="68" to-port="1"/>
		<edge from-layer="68" from-port="2" to-layer="69" to-port="0"/>
		<edge from-layer="69" from-port="1" to-layer="74" to-port="0"/>
		<edge from-layer="70" from-port="1" to-layer="74" to-port="1"/>
		<edge from-layer="71" from-port="1" to-layer="74" to-port="2"/>
		<edge from-layer="72" from-port="1" to-layer="74" to-port="3"/>
		<edge from-layer="73" from-port="1" to-layer="74" to-port="4"/>
		<edge from-layer="64" from-port="1" to-layer="79" to-port="0"/>
		<edge from-layer="75" from-port="1" to-layer="79" to-port="1"/>
		<edge from-layer="76" from-port="1" to-layer="79" to-port="2"/>
		<edge from-layer="77" from-port="1" to-layer="79" to-port="3"/>
		<edge from-layer="78" from-port="1" to-layer="79" to-port="4"/>
		<edge from-layer="80" from-port="1" to-layer="81" to-port="0"/>
		<edge from-layer="81" from-port="1" to-layer="86" to-port="0"/>
		<edge from-layer="82" from-port="1" to-layer="86" to-port="1"/>
		<edge from-layer="83" from-port="1" to-layer="86" to-port="2"/>
		<edge from-layer="84" from-port="1" to-layer="86" to-port="3"/>
		<edge from-layer="85" from-port="1" to-layer="86" to-port="4"/>
		<edge from-layer="79" from-port="5" to-layer="87" to-port="0"/>
		<edge from-layer="86" from-port="5" to-layer="87" to-port="1"/>
		<edge from-layer="87" from-port="2" to-layer="89" to-port="0"/>
		<edge from-layer="88" from-port="1" to-layer="89" to-port="1"/>
		<edge from-layer="89" from-port="2" to-layer="90" to-port="0"/>
		<edge from-layer="90" from-port="1" to-layer="95" to-port="0"/>
		<edge from-layer="91" from-port="1" to-layer="95" to-port="1"/>
		<edge from-layer="92" from-port="1" to-layer="95" to-port="2"/>
		<edge from-layer="93" from-port="1" to-layer="95" to-port="3"/>
		<edge from-layer="94" from-port="1" to-layer="95" to-port="4"/>
		<edge from-layer="96" from-port="1" to-layer="97" to-port="0"/>
		<edge from-layer="97" from-port="1" to-layer="102" to-port="0"/>
		<edge from-layer="98" from-port="1" to-layer="102" to-port="1"/>
		<edge from-layer="99" from-port="1" to-layer="102" to-port="2"/>
		<edge from-layer="100" from-port="1" to-layer="102" to-port="3"/>
		<edge from-layer="101" from-port="1" to-layer="102" to-port="4"/>
		<edge from-layer="95" from-port="5" to-layer="103" to-port="0"/>
		<edge from-layer="102" from-port="5" to-layer="103" to-port="1"/>
		<edge from-layer="103" from-port="2" to-layer="105" to-port="0"/>
		<edge from-layer="104" from-port="1" to-layer="105" to-port="1"/>
		<edge from-layer="105" from-port="2" to-layer="106" to-port="0"/>
		<edge from-layer="106" from-port="1" to-layer="111" to-port="0"/>
		<edge from-layer="107" from-port="1" to-layer="111" to-port="1"/>
		<edge from-layer="108" from-port="1" to-layer="111" to-port="2"/>
		<edge from-layer="109" from-port="1" to-layer="111" to-port="3"/>
		<edge from-layer="110" from-port="1" to-layer="111" to-port="4"/>
		<edge from-layer="112" from-port="1" to-layer="113" to-port="0"/>
		<edge from-layer="113" from-port="1" to-layer="118" to-port="0"/>
		<edge from-layer="114" from-port="1" to-layer="118" to-port="1"/>
		<edge from-layer="115" from-port="1" to-layer="118" to-port="2"/>
		<edge from-layer="116" from-port="1" to-layer="118" to-port="3"/>
		<edge from-layer="117" from-port="1" to-layer="118" to-port="4"/>
		<edge from-layer="111" from-port="5" to-layer="119" to-port="0"/>
		<edge from-layer="118" from-port="5" to-layer="119" to-port="1"/>
		<edge from-layer="119" from-port="2" to-layer="121" to-port="0"/>
		<edge from-layer="120" from-port="1" to-layer="121" to-port="1"/>
		<edge from-layer="121" from-port="2" to-layer="122" to-port="0"/>
		<edge from-layer="122" from-port="1" to-layer="127" to-port="0"/>
		<edge from-layer="123" from-port="1" to-layer="127" to-port="1"/>
		<edge from-layer="124" from-port="1" to-layer="127" to-port="2"/>
		<edge from-layer="125" from-port="1" to-layer="127" to-port="3"/>
		<edge from-layer="126" from-port="1" to-layer="127" to-port="4"/>
		<edge from-layer="128" from-port="1" to-layer="129" to-port="0"/>
		<edge from-layer="129" from-port="1" to-layer="134" to-port="0"/>
		<edge from-layer="130" from-port="1" to-layer="134" to-port="1"/>
		<edge from-layer="131" from-port="1" to-layer="134" to-port="2"/>
		<edge from-layer="132" from-port="1" to-layer="134" to-port="3"/>
		<edge from-layer="133" from-port="1" to-layer="134" to-port="4"/>
		<edge from-layer="127" from-port="5" to-layer="135" to-port="0"/>
		<edge from-layer="134" from-port="5" to-layer="135" to-port="1"/>
		<edge from-layer="135" from-port="2" to-layer="137" to-port="0"/>
		<edge from-layer="136" from-port="1" to-layer="137" to-port="1"/>
		<edge from-layer="137" from-port="2" to-layer="138" to-port="0"/>
		<edge from-layer="138" from-port="1" to-layer="143" to-port="0"/>
		<edge from-layer="139" from-port="1" to-layer="143" to-port="1"/>
		<edge from-layer="140" from-port="1" to-layer="143" to-port="2"/>
		<edge from-layer="141" from-port="1" to-layer="143" to-port="3"/>
		<edge from-layer="142" from-port="1" to-layer="143" to-port="4"/>
		<edge from-layer="144" from-port="1" to-layer="145" to-port="0"/>
		<edge from-layer="145" from-port="1" to-layer="150" to-port="0"/>
		<edge from-layer="146" from-port="1" to-layer="150" to-port="1"/>
		<edge from-layer="147" from-port="1" to-layer="150" to-port="2"/>
		<edge from-layer="148" from-port="1" to-layer="150" to-port="3"/>
		<edge from-layer="149" from-port="1" to-layer="150" to-port="4"/>
		<edge from-layer="143" from-port="5" to-layer="151" to-port="0"/>
		<edge from-layer="150" from-port="5" to-layer="151" to-port="1"/>
		<edge from-layer="151" from-port="2" to-layer="153" to-port="0"/>
		<edge from-layer="152" from-port="1" to-layer="153" to-port="1"/>
		<edge from-layer="153" from-port="2" to-layer="154" to-port="0"/>
		<edge from-layer="154" from-port="1" to-layer="159" to-port="0"/>
		<edge from-layer="155" from-port="1" to-layer="159" to-port="1"/>
		<edge from-layer="156" from-port="1" to-layer="159" to-port="2"/>
		<edge from-layer="157" from-port="1" to-layer="159" to-port="3"/>
		<edge from-layer="158" from-port="1" to-layer="159" to-port="4"/>
		<edge from-layer="160" from-port="1" to-layer="161" to-port="0"/>
		<edge from-layer="161" from-port="1" to-layer="166" to-port="0"/>
		<edge from-layer="162" from-port="1" to-layer="166" to-port="1"/>
		<edge from-layer="163" from-port="1" to-layer="166" to-port="2"/>
		<edge from-layer="164" from-port="1" to-layer="166" to-port="3"/>
		<edge from-layer="165" from-port="1" to-layer="166" to-port="4"/>
		<edge from-layer="159" from-port="5" to-layer="167" to-port="0"/>
		<edge from-layer="166" from-port="5" to-layer="167" to-port="1"/>
		<edge from-layer="167" from-port="2" to-layer="169" to-port="0"/>
		<edge from-layer="168" from-port="1" to-layer="169" to-port="1"/>
		<edge from-layer="169" from-port="2" to-layer="170" to-port="0"/>
		<edge from-layer="170" from-port="1" to-layer="172" to-port="0"/>
		<edge from-layer="171" from-port="1" to-layer="172" to-port="1"/>
		<edge from-layer="172" from-port="2" to-layer="174" to-port="0"/>
		<edge from-layer="173" from-port="1" to-layer="174" to-port="1"/>
		<edge from-layer="174" from-port="2" to-layer="175" to-port="0"/>
		<edge from-layer="175" from-port="1" to-layer="180" to-port="0"/>
		<edge from-layer="176" from-port="1" to-layer="180" to-port="1"/>
		<edge from-layer="177" from-port="1" to-layer="180" to-port="2"/>
		<edge from-layer="178" from-port="1" to-layer="180" to-port="3"/>
		<edge from-layer="179" from-port="1" to-layer="180" to-port="4"/>
		<edge from-layer="170" from-port="1" to-layer="185" to-port="0"/>
		<edge from-layer="181" from-port="1" to-layer="185" to-port="1"/>
		<edge from-layer="182" from-port="1" to-layer="185" to-port="2"/>
		<edge from-layer="183" from-port="1" to-layer="185" to-port="3"/>
		<edge from-layer="184" from-port="1" to-layer="185" to-port="4"/>
		<edge from-layer="186" from-port="1" to-layer="187" to-port="0"/>
		<edge from-layer="187" from-port="1" to-layer="192" to-port="0"/>
		<edge from-layer="188" from-port="1" to-layer="192" to-port="1"/>
		<edge from-layer="189" from-port="1" to-layer="192" to-port="2"/>
		<edge from-layer="190" from-port="1" to-layer="192" to-port="3"/>
		<edge from-layer="191" from-port="1" to-layer="192" to-port="4"/>
		<edge from-layer="185" from-port="5" to-layer="193" to-port="0"/>
		<edge from-layer="192" from-port="5" to-layer="193" to-port="1"/>
		<edge from-layer="193" from-port="2" to-layer="195" to-port="0"/>
		<edge from-layer="194" from-port="1" to-layer="195" to-port="1"/>
		<edge from-layer="195" from-port="2" to-layer="196" to-port="0"/>
		<edge from-layer="196" from-port="1" to-layer="201" to-port="0"/>
		<edge from-layer="197" from-port="1" to-layer="201" to-port="1"/>
		<edge from-layer="198" from-port="1" to-layer="201" to-port="2"/>
		<edge from-layer="199" from-port="1" to-layer="201" to-port="3"/>
		<edge from-layer="200" from-port="1" to-layer="201" to-port="4"/>
		<edge from-layer="202" from-port="1" to-layer="203" to-port="0"/>
		<edge from-layer="203" from-port="1" to-layer="208" to-port="0"/>
		<edge from-layer="204" from-port="1" to-layer="208" to-port="1"/>
		<edge from-layer="205" from-port="1" to-layer="208" to-port="2"/>
		<edge from-layer="206" from-port="1" to-layer="208" to-port="3"/>
		<edge from-layer="207" from-port="1" to-layer="208" to-port="4"/>
		<edge from-layer="201" from-port="5" to-layer="209" to-port="0"/>
		<edge from-layer="208" from-port="5" to-layer="209" to-port="1"/>
		<edge from-layer="209" from-port="2" to-layer="211" to-port="0"/>
		<edge from-layer="210" from-port="1" to-layer="211" to-port="1"/>
		<edge from-layer="211" from-port="2" to-layer="212" to-port="0"/>
		<edge from-layer="212" from-port="1" to-layer="217" to-port="0"/>
		<edge from-layer="213" from-port="1" to-layer="217" to-port="1"/>
		<edge from-layer="214" from-port="1" to-layer="217" to-port="2"/>
		<edge from-layer="215" from-port="1" to-layer="217" to-port="3"/>
		<edge from-layer="216" from-port="1" to-layer="217" to-port="4"/>
		<edge from-layer="218" from-port="1" to-layer="219" to-port="0"/>
		<edge from-layer="219" from-port="1" to-layer="224" to-port="0"/>
		<edge from-layer="220" from-port="1" to-layer="224" to-port="1"/>
		<edge from-layer="221" from-port="1" to-layer="224" to-port="2"/>
		<edge from-layer="222" from-port="1" to-layer="224" to-port="3"/>
		<edge from-layer="223" from-port="1" to-layer="224" to-port="4"/>
		<edge from-layer="217" from-port="5" to-layer="225" to-port="0"/>
		<edge from-layer="224" from-port="5" to-layer="225" to-port="1"/>
		<edge from-layer="225" from-port="2" to-layer="227" to-port="0"/>
		<edge from-layer="226" from-port="1" to-layer="227" to-port="1"/>
		<edge from-layer="227" from-port="2" to-layer="228" to-port="0"/>
		<edge from-layer="228" from-port="1" to-layer="233" to-port="0"/>
		<edge from-layer="229" from-port="1" to-layer="233" to-port="1"/>
		<edge from-layer="230" from-port="1" to-layer="233" to-port="2"/>
		<edge from-layer="231" from-port="1" to-layer="233" to-port="3"/>
		<edge from-layer="232" from-port="1" to-layer="233" to-port="4"/>
		<edge from-layer="234" from-port="1" to-layer="235" to-port="0"/>
		<edge from-layer="235" from-port="1" to-layer="240" to-port="0"/>
		<edge from-layer="236" from-port="1" to-layer="240" to-port="1"/>
		<edge from-layer="237" from-port="1" to-layer="240" to-port="2"/>
		<edge from-layer="238" from-port="1" to-layer="240" to-port="3"/>
		<edge from-layer="239" from-port="1" to-layer="240" to-port="4"/>
		<edge from-layer="233" from-port="5" to-layer="241" to-port="0"/>
		<edge from-layer="240" from-port="5" to-layer="241" to-port="1"/>
		<edge from-layer="241" from-port="2" to-layer="243" to-port="0"/>
		<edge from-layer="242" from-port="1" to-layer="243" to-port="1"/>
		<edge from-layer="243" from-port="2" to-layer="244" to-port="0"/>
		<edge from-layer="244" from-port="1" to-layer="249" to-port="0"/>
		<edge from-layer="245" from-port="1" to-layer="249" to-port="1"/>
		<edge from-layer="246" from-port="1" to-layer="249" to-port="2"/>
		<edge from-layer="247" from-port="1" to-layer="249" to-port="3"/>
		<edge from-layer="248" from-port="1" to-layer="249" to-port="4"/>
		<edge from-layer="250" from-port="1" to-layer="251" to-port="0"/>
		<edge from-layer="251" from-port="1" to-layer="256" to-port="0"/>
		<edge from-layer="252" from-port="1" to-layer="256" to-port="1"/>
		<edge from-layer="253" from-port="1" to-layer="256" to-port="2"/>
		<edge from-layer="254" from-port="1" to-layer="256" to-port="3"/>
		<edge from-layer="255" from-port="1" to-layer="256" to-port="4"/>
		<edge from-layer="249" from-port="5" to-layer="257" to-port="0"/>
		<edge from-layer="256" from-port="5" to-layer="257" to-port="1"/>
		<edge from-layer="257" from-port="2" to-layer="259" to-port="0"/>
		<edge from-layer="258" from-port="1" to-layer="259" to-port="1"/>
		<edge from-layer="259" from-port="2" to-layer="260" to-port="0"/>
		<edge from-layer="260" from-port="1" to-layer="265" to-port="0"/>
		<edge from-layer="261" from-port="1" to-layer="265" to-port="1"/>
		<edge from-layer="262" from-port="1" to-layer="265" to-port="2"/>
		<edge from-layer="263" from-port="1" to-layer="265" to-port="3"/>
		<edge from-layer="264" from-port="1" to-layer="265" to-port="4"/>
		<edge from-layer="266" from-port="1" to-layer="267" to-port="0"/>
		<edge from-layer="267" from-port="1" to-layer="272" to-port="0"/>
		<edge from-layer="268" from-port="1" to-layer="272" to-port="1"/>
		<edge from-layer="269" from-port="1" to-layer="272" to-port="2"/>
		<edge from-layer="270" from-port="1" to-layer="272" to-port="3"/>
		<edge from-layer="271" from-port="1" to-layer="272" to-port="4"/>
		<edge from-layer="265" from-port="5" to-layer="273" to-port="0"/>
		<edge from-layer="272" from-port="5" to-layer="273" to-port="1"/>
		<edge from-layer="273" from-port="2" to-layer="275" to-port="0"/>
		<edge from-layer="274" from-port="1" to-layer="275" to-port="1"/>
		<edge from-layer="275" from-port="2" to-layer="276" to-port="0"/>
		<edge from-layer="276" from-port="1" to-layer="278" to-port="0"/>
		<edge from-layer="277" from-port="1" to-layer="278" to-port="1"/>
		<edge from-layer="278" from-port="2" to-layer="280" to-port="0"/>
		<edge from-layer="279" from-port="1" to-layer="280" to-port="1"/>
		<edge from-layer="280" from-port="2" to-layer="281" to-port="0"/>
		<edge from-layer="281" from-port="1" to-layer="286" to-port="0"/>
		<edge from-layer="282" from-port="1" to-layer="286" to-port="1"/>
		<edge from-layer="283" from-port="1" to-layer="286" to-port="2"/>
		<edge from-layer="284" from-port="1" to-layer="286" to-port="3"/>
		<edge from-layer="285" from-port="1" to-layer="286" to-port="4"/>
		<edge from-layer="74" from-port="5" to-layer="287" to-port="0"/>
		<edge from-layer="180" from-port="5" to-layer="287" to-port="1"/>
		<edge from-layer="286" from-port="5" to-layer="287" to-port="2"/>
		<edge from-layer="288" from-port="1" to-layer="289" to-port="0"/>
		<edge from-layer="289" from-port="1" to-layer="294" to-port="0"/>
		<edge from-layer="290" from-port="1" to-layer="294" to-port="1"/>
		<edge from-layer="291" from-port="1" to-layer="294" to-port="2"/>
		<edge from-layer="292" from-port="1" to-layer="294" to-port="3"/>
		<edge from-layer="293" from-port="1" to-layer="294" to-port="4"/>
		<edge from-layer="287" from-port="3" to-layer="295" to-port="0"/>
		<edge from-layer="294" from-port="5" to-layer="295" to-port="1"/>
		<edge from-layer="295" from-port="2" to-layer="297" to-port="0"/>
		<edge from-layer="296" from-port="1" to-layer="297" to-port="1"/>
		<edge from-layer="297" from-port="2" to-layer="299" to-port="0"/>
		<edge from-layer="298" from-port="1" to-layer="299" to-port="1"/>
		<edge from-layer="299" from-port="2" to-layer="300" to-port="0"/>
		<edge from-layer="301" from-port="1" to-layer="302" to-port="0"/>
		<edge from-layer="302" from-port="1" to-layer="307" to-port="0"/>
		<edge from-layer="303" from-port="1" to-layer="307" to-port="1"/>
		<edge from-layer="304" from-port="1" to-layer="307" to-port="2"/>
		<edge from-layer="305" from-port="1" to-layer="307" to-port="3"/>
		<edge from-layer="306" from-port="1" to-layer="307" to-port="4"/>
		<edge from-layer="287" from-port="3" to-layer="308" to-port="0"/>
		<edge from-layer="307" from-port="5" to-layer="308" to-port="1"/>
		<edge from-layer="308" from-port="2" to-layer="310" to-port="0"/>
		<edge from-layer="309" from-port="1" to-layer="310" to-port="1"/>
		<edge from-layer="310" from-port="2" to-layer="312" to-port="0"/>
		<edge from-layer="311" from-port="1" to-layer="312" to-port="1"/>
		<edge from-layer="312" from-port="2" to-layer="313" to-port="0"/>
		<edge from-layer="314" from-port="1" to-layer="315" to-port="0"/>
		<edge from-layer="315" from-port="1" to-layer="320" to-port="0"/>
		<edge from-layer="316" from-port="1" to-layer="320" to-port="1"/>
		<edge from-layer="317" from-port="1" to-layer="320" to-port="2"/>
		<edge from-layer="318" from-port="1" to-layer="320" to-port="3"/>
		<edge from-layer="319" from-port="1" to-layer="320" to-port="4"/>
		<edge from-layer="287" from-port="3" to-layer="321" to-port="0"/>
		<edge from-layer="320" from-port="5" to-layer="321" to-port="1"/>
		<edge from-layer="321" from-port="2" to-layer="323" to-port="0"/>
		<edge from-layer="322" from-port="1" to-layer="323" to-port="1"/>
		<edge from-layer="323" from-port="2" to-layer="325" to-port="0"/>
		<edge from-layer="324" from-port="1" to-layer="325" to-port="1"/>
		<edge from-layer="325" from-port="2" to-layer="326" to-port="0"/>
	</edges>
	<meta_data>
		<MO_version value="2021.2.0-1877-176bdf51370-releases/2021/2"/>
		<cli_parameters>
			<caffe_parser_path value="DIR"/>
			<data_type value="FP16"/>
			<disable_nhwc_to_nchw value="False"/>
			<disable_omitting_optional value="False"/>
			<disable_resnet_optimization value="False"/>
			<disable_weights_compression value="False"/>
			<enable_concat_optimization value="False"/>
			<enable_flattening_nested_params value="False"/>
			<enable_ssd_gluoncv value="False"/>
			<extensions value="DIR"/>
			<framework value="onnx"/>
			<freeze_placeholder_with_value value="{}"/>
			<generate_deprecated_IR_V7 value="False"/>
			<input_model value="DIR/rpn.onnx"/>
			<input_model_is_text value="False"/>
			<input_shape value="[1,64,496,432]"/>
			<k value="DIR/CustomLayersMapping.xml"/>
			<keep_shape_ops value="True"/>
			<legacy_mxnet_model value="False"/>
			<log_level value="ERROR"/>
			<mean_scale_values value="{}"/>
			<mean_values value="()"/>
			<model_name value="rpn"/>
			<output_dir value="DIR"/>
			<placeholder_data_types value="{}"/>
			<placeholder_shapes value="[  1  64 496 432]"/>
			<progress value="False"/>
			<remove_memory value="False"/>
			<remove_output_softmax value="False"/>
			<reverse_input_channels value="False"/>
			<save_params_from_nd value="False"/>
			<scale_values value="()"/>
			<silent value="False"/>
			<static_shape value="False"/>
			<stream_output value="False"/>
			<unset unset_cli_parameters="batch, counts, disable_fusing, disable_gfusing, finegrain_fusing, input, input_checkpoint, input_meta_graph, input_proto, input_symbol, mean_file, mean_file_offsets, move_to_preprocess, nd_prefix_name, output, pretrained_model_name, saved_model_dir, saved_model_tags, scale, tensorboard_logdir, tensorflow_custom_layer_libraries, tensorflow_custom_operations_config_update, tensorflow_object_detection_api_pipeline_config, tensorflow_use_custom_operations_config, transformations_config"/>
		</cli_parameters>
	</meta_data>
	<quantization_parameters>
		<config/>
		<version value="{}"/>
		<cli_params value="{}"/>
	</quantization_parameters>
</net>
